save/initial_classifier/classifier_portraits.pt (torch, 77419 bytes, 10 tensors)

0.weight f4 [128, 8]
00000000: d15d 62be 5286 95bd 0350 64bb d3c0 fea9
00000010: cd7a e7bd af0a ab1d eb50 4bbe 1766 0f3d
00000020: 7c28 b1bd f7d4 1093 9a24 bcbc 6668 47be
00000030: 9ace 5d3d d9ce 6bbe 9521 ea39 1c2f 34bb
00000040: 9446 733d 2c0b fabd 137f 7f3c d996 62bd
00000050: 6e61 e53d 6fa4 99bd 0dd7 463d 698c 0dbe
00000060: f8f6 e7bd eb42 a3bb 5810 053e f6c3 04be
00000070: 2796 131a 48ca 9f1a 8f60 0e3e 8105 66bd
00000080: d38a 7bbd 454e ff92 f20a 5119 c7f9 f1bd
00000090: d090 073e 2541 0ebe dd17 04be fb16 cfbd
000000a0: 372b 273d 896e 633e d794 57be 5c03 6c3e
000000b0: 2c93 7fbd a0cd 743e f3a5 8fbc 9219 1dbc
000000c0: 32dc 14be 8aa9 8ebd 1014 2c3e 1cd6 df3d
000000d0: 95eb c9bd e0a1 9a3e 8cf3 8b3e e899 a7be
000000e0: 46e8 873e 4054 a6be 9742 873e d485 20be
000000f0: 438e c13d 5f36 45be 7138 7c3c 5a4e 543e
00000100: 57e9 203e a370 83be a623 583e 54a2 683e
00000110: 953b 1ebe f6da 0f3c cf4e 2fbe c63b 013d
00000120: 49ba f6bc d291 8d3b 6bb9 2cbd 3b96 01bd
00000130: 094c 75bd e274 e0bd b646 5e3d 97e0 e73c
00000140: 6478 bcbe 42e5 823e 077e 94bc 5ae9 9c3e
00000150: da6e 80be cede 493e f94b d4bc 4bb5 21be
00000160: 15de a2bc 4a93 1dbe 9527 93bd 460e ce33
00000170: 0b7b 8a3c 5150 c33c 26a2 693d 2464 448f
00000180: 5bbf 3dbe c5c3 ecbd 275e 08bc 9584 383e
00000190: 6dd2 0fbe aa7c 37be 24b9 623e 1cfe 7d3c
000001a0: 9365 e33d fea3 a03e ec73 cfbe 5b7e 323d
000001b0: dbff 103e 1c54 bcbe 74ea 48bd eaf3 09bc
000001c0: 783c 113e 4f31 6b3e ffb6 2bbe a96a acbe
000001d0: e8ed 763d 0867 143e ae1d e8bd f946 a93e
000001e0: f266 48be aff2 dd38 687d a01a b803 27be
000001f0: 8c30 5fbe fd0c 02bd e3f0 623e e516 2c3e
00000200: a9b8 3bbe f0e6 4ebe 835b 62bc 7c87 803d
00000210: f253 de3d 91c7 11be 0c20 13be 23ff 4a3e
00000220: 22f1 92bd b13d 4e3e ca3f 2ebe 55b5 9d3e
00000230: 366a 16be c298 183e 8b97 abbd 723a 7fbb
00000240: 3e0d bd3c 2a6a 623d df93 273e 50ca 80be
00000250: 7dcd 8dbe 36f4 cd3c 4137 30bd 7e87 783e
00000260: 982f 1bbd 3c84 713d 6ad4 55be f878 d8bd
00000270: 4ef3 473e 5b31 ddbc a593 303e 0b43 a53d
00000280: 085c ce3c 01c7 860e 14f0 343c ab31 0bbe
00000290: fb21 3fbe 993e f23d 4591 5299 fd5f 32be
000002a0: 71b3 85be b491 0c3e 708e 7cbe 4bba 35be
000002b0: 2038 a13e d29c 283e 017a fabc 3c5f 483e
000002c0: 797b 28be cbfb b716 798a 8cbb e29c 4a94
000002d0: 78d7 743d f707 c992 95b6 788d a435 4bbe
000002e0: c74a 443e fd4c 28be ffc3 373e ac9b e5bd
000002f0: 0c45 f9bd 44b9 1f99 3028 62be e1d9 91ba
00000300: 69b0 0133 215c c43d 9d3b e73d e27a 1cbc
00000310: 43b9 7fbb 432f 6cbe 307d bb3d b535 68be
00000320: 750f 8f3e e67d 44be f3e6 813e e1aa 8cbe
00000330: 501b 813e 489d d83d 5fe3 98be 8982 383d
00000340: be78 593e 95e1 cc3c f7f0 b7be 886a 853e
00000350: d4e8 5abe 3b5e 983e 25b9 37bd fc34 1c3b
00000360: 2933 503c acfe 02be c4cf 173d bd93 45bd
00000370: 032a 482d ce8f 9fbd 0fa2 32ba 4f06 2d3c
00000380: fb8f 53bd 3cb3 99be b10f aa3d c801 7c3e
00000390: f46a 55be 5b9f 943e 9d43 cbbd a14c 49bd
000003a0: e44f 3d3d c6df 84bd 4f60 2393 1eb1 5cbc
000003b0: 812c 59be cf4f 263e 9ab2 f23c 4d61 96ba
000003c0: ffa2 973d 873a a8bd 2255 a7be d260 353e
000003d0: a5f1 e8bd 7309 ee3d d925 c2be c2b5 963e
000003e0: 70ae ad3e 5091 0bbe 3856 783e b2f2 33bc
000003f0: 0a50 643e 1bcd 2bbe 8eaa b83c 95b2 9d3e
-0.221061 -0.0730101 -0.003483773 -1.13133156e-13 -0.11302719 4.527437e-21 -0.19855087 0.03500947
-0.086503 -1.8280355e-27 -0.022966672 -0.19473419 0.05415211 -0.23028125 0.0004465698 -0.00274939
0.05939348 -0.12209162 0.015594262 -0.05531964 0.11200224 -0.07502066 0.048544932 -0.13823093
-0.113264024 -0.0049823425 0.12994516 -0.12965378 3.052018e-23 6.608766e-23 0.13904022 -0.056157593
-0.06141169 -1.6112057e-27 1.0807257e-23 -0.11815219 0.13238835 -0.13892038 -0.12899728 -0.10111805
0.040812697 0.22210135 -0.21052872 0.23048156 -0.062396213 0.23906565 -0.017535185 -0.009588616
-0.14537123 -0.06965931 0.16804528 0.1092951 -0.09859387 0.30201626 0.2733425 -0.3273461
0.26544398 -0.32486153 0.26417992 -0.15676051 0.094509624 -0.19259022 0.015394316 0.20733014
0.15714012 -0.25671872 0.21107349 0.22718173 -0.15452416 0.008780232 -0.17119907 0.031551145
-0.030118125 0.0043203617 -0.042169016 -0.03163741 -0.059886966 -0.109597936 0.054266654 0.028305335
-0.368106 0.25565535 -0.0181265 0.30646783 -0.25084573 0.197139 -0.025915133 -0.15791814
-0.019881288 -0.15388218 -0.07185284 9.595219e-08 0.016904375 0.023842009 0.057039402 -9.6828325e-30
-0.18530028 -0.115607776 -0.008323229 0.18019326 -0.14045115 -0.1791865 0.22140938 0.015502479
0.11103358 0.31375116 -0.4051813 0.043577533 0.14160101 -0.3678292 -0.049051717 -0.00841997
0.14183223 0.22968028 -0.16769026 -0.33675125 0.06028548 0.14492428 -0.11333786 0.3306196
-0.1957052 0.000105833045 6.6377054e-23 -0.16310012 -0.21795863 -0.031750668 0.22162203 0.16805609
-0.18332161 -0.20205283 -0.013815763 0.062758416 0.10855855 -0.14236285 -0.14367694 0.1982389
-0.07174899 0.20140721 -0.17016521 0.30802408 -0.14688954 0.14902022 -0.08378514 -0.0038944748
0.023077603 0.055277027 0.16365002 -0.25154352 -0.27695838 0.025140863 -0.043021444 0.24270436
-0.037887186 0.058964 -0.20881811 -0.10569948 0.19526407 -0.027001074 0.17243822 0.08069428
0.025190368 3.3225184e-30 0.011043567 -0.13593166 -0.18665306 0.11828346 -1.08860825e-23 -0.17419429
-0.26113465 0.13727456 -0.2466371 -0.17746846 0.31488132 0.16466072 -0.030575754 0.19567579
-0.16453351 2.9724148e-25 -0.004288968 -1.02293335e-26 0.0597758 -1.2686847e-27 -7.6640675e-31 -0.19844681
0.1916915 -0.16435619 0.1794586 -0.11211333 -0.12171373 -8.2575214e-24 -0.22085643 -0.0011127555
3.0195597e-08 0.09587885 0.11290667 -0.009550782 -0.0039020337 -0.23064904 0.09154737 -0.22676738
0.2794148 -0.19188651 0.25371513 -0.2747412 0.2521615 0.10576874 -0.2986097 0.045046363
0.21237466 0.02500991 -0.3592603 0.2605784 -0.2137788 0.29759392 -0.044854302 0.0023835292
0.01270751 -0.12792462 0.037063375 -0.048236597 1.1378012e-11 -0.077911004 -0.000681431 0.010560586
-0.051650982 -0.30019557 0.08303774 0.24610054 -0.2084158 0.2902783 -0.099250056 -0.049145345
0.046218768 -0.06487994 -2.0620976e-27 -0.013469962 -0.21208383 0.16241382 0.02962618 -0.001147309
0.07404136 -0.08214288 -0.3268214 0.17712715 -0.11374215 0.11622896 -0.379195 0.29435545
0.33922148 -0.13629651 0.2425164 -0.010983156 0.22296157 -0.1677746 0.022542264 0.3080031

0.bias f4 [128]
00000000: 9be2 cf3c 8249 403e 0165 003d 88f1 cdbc
00000010: 7e88 3bbe 6e3c b3be 1dc1 55be 2603 a4bd
00000020: 330b 6bbe 08e9 ac3d b363 ea3d a70f 153b
00000030: 5b4c c1bd 5b4e 953e 4576 83be 98d6 233e
00000040: 3f06 afbb 206e 8f3e 208b a63d 1928 93be
00000050: 8343 0e3e 3a54 48be c524 56be 28ec 863c
00000060: 399a f6bd 8675 68bd fcb9 8f3e a0e4 351e
00000070: 4826 07be 80e2 61be ba45 433e 8273 5d3e
00000080: 1c2e 0abe 1de6 173c 480f ecbd cd36 c7bd
00000090: 4159 eb3b 801c 263e e00c c8bc 5304 08be
000000a0: 95b2 8dbe 75a5 c8bc 763a 4a3e a3f5 9b3e
000000b0: f498 353e bae6 501b 6931 063e 5ae0 09bc
000000c0: 7533 aa3d ba1f 463d b63f ffbd 46d1 d4bc
000000d0: 2a58 b0be 7133 d13d 42e7 6c3e 96b0 08bd
000000e0: ca57 6a3e 5b6c 153d d0f2 483e a1ff 1d3e
000000f0: 0615 a7b9 5c6c a51d 9f85 833d 476a d93d
00000100: be46 813d 88ac 873e f9f3 a73e 1139 d8bd
00000110: 2096 b0bd e481 0c3e b1d7 5ebe ef18 50be
00000120: 327f 1f3e e658 8b3e 969a 47b7 9980 6e3e
00000130: e8b5 12bd 4dc2 019e 76ed a1bd 0234 6f3e
00000140: 59ac 573e 3dd1 153c 9a7a 8c3e ef9f bc3d
00000150: 247a ad3e 7c26 043e fc58 6a3e 4d31 0d3e
00000160: c56a 2d3d 7e4b ecbd 0599 243e a2b1 2cbe
00000170: f5f4 93bc ca51 783e 10a2 153c 66b3 a03e
00000180: 7842 32be 39d3 339c bd3c 363e 15fd afbd
00000190: 14ab ba3d 85a8 9cba 5ef0 63bd e960 443e
000001a0: b082 4f3d c483 b4bc b2fa 5bbe ea12 263e
000001b0: 3be4 6a3e a264 103e 69f0 42be 345f e3bd
000001c0: 92f3 7d3d 3505 4d3e 3bbf 43be f2ab 3c3b
000001d0: da79 14bd e52a d48e 06d2 8b3b a552 a13e
000001e0: 5c12 063e 0581 7d3d 8480 23be 2760 79be
000001f0: 6679 a7be 2f00 0d3e 9e63 23bd 8ae8 6d3e
0.025376609 0.18778041 0.031346325 -0.025139585 -0.18313786 -0.35007042 -0.20874448 -0.08008413
-0.22953491 0.08442885 0.11444797 0.0022744925 -0.09438392 0.29161343 -0.2567617 0.1599983
-0.0053413208 0.28013706 0.08132005 -0.2874153 0.13892941 -0.1956338 -0.20912464 0.01647003
-0.120411344 -0.056752704 0.28071582 9.629339e-21 -0.13198197 -0.22059059 0.19069567 0.21626094
-0.13494152 0.009271172 -0.11526352 -0.09727249 0.0071822708 0.1622181 -0.024420202 -0.132829
-0.2767531 -0.024492959 0.19748864 0.30460843 0.17734128 1.7279909e-22 0.13104786 -0.008415306
0.08310596 0.0483701 -0.12463324 -0.025978696 -0.34442264 0.1021489 0.23135093 -0.03337153
0.22885051 0.03648029 0.19623876 0.15429546 -0.00031868386 4.3787177e-21 0.064219706 0.10615974
0.06312321 0.26498818 0.32803324 -0.105577596 -0.08622384 0.13721424 -0.21761967 -0.20322011
0.15575865 0.27216262 -1.1897317e-05 0.23291244 -0.03581801 -6.869384e-21 -0.0790662 0.23359683
0.21061839 0.009144125 0.27437288 0.092101924 0.33882248 0.12905306 0.22885507 0.13788338
0.04233815 -0.115378365 0.16073997 -0.16864637 -0.01806114 0.2424995 0.009132877 0.3138687
-0.17408168 -5.949913e-22 0.17796607 -0.085931934 0.09114662 -0.0011952078 -0.055649154 0.19177593
0.050661743 -0.022035487 -0.21482351 0.16218153 0.22938626 0.14100888 -0.19037022 -0.11102143
0.061999865 0.20021518 -0.19115917 0.002878901 -0.03624902 -5.230334e-30 0.00426698 0.31508365
0.13092941 0.06189062 -0.15966994 -0.24353085 -0.32709807 0.13769601 -0.039889924 0.23233238

3.weight f4 [128]
00000000: 9d68 603f 9d68 603f 9d68 603f 9d68 603f
00000010: 9d68 603f e570 793f c05f 843f b5c3 8a3f
00000020: 89df 813f 9d68 603f ece8 823f 9d68 603f
00000030: 9d68 603f f30d 863f 4bde 7c3f 9d68 603f
00000040: 9d68 603f e198 7a3f 2d88 7f3f 856d 823f
00000050: 9d68 603f f2b7 7f3f 9d68 603f 9d68 603f
00000060: 9d68 603f e434 793f d66f 793f 9d68 603f
00000070: d312 7c3f 9d68 603f ce31 873f 632a 773f
00000080: 9d68 603f 9d68 603f 9d68 603f 9d68 603f
00000090: cc9e 833f a3a7 783f 9d68 603f 9d68 603f
000000a0: e4ba 823f 0221 7c3f 26f2 7f3f 18a2 813f
000000b0: 8fde 773f 9d68 603f 07a9 7d3f 3dde 833f
000000c0: a3af 833f d302 823f 2306 803f 3094 863f
000000d0: cfd5 833f 79bf 793f 04d7 853f 95ba 673f
000000e0: 9d68 603f 9d68 603f 861b 783f 1949 853f
000000f0: 9d68 603f 9d68 603f ffa8 7f3f 519d 853f
00000100: d26a 883f 355c 773f c9d7 763f 1322 7a3f
00000110: 5a0e 823f 51fd 693f c1fc 8a3f 9d68 603f
00000120: 9d68 603f 07cd 8a3f 9d68 603f 6e13 783f
00000130: 9d68 603f 9d68 603f 7ff9 853f 1e1c 833f
00000140: 9d68 603f b47a 793f 641e 783f 9d68 603f
00000150: 684e 813f 9d68 603f 6709 7a3f 902a 693f
00000160: 9e68 603f 9d68 603f 9535 893f ae0f 823f
00000170: 9d68 603f 7f81 7d3f d18a 7c3f 370f 8b3f
00000180: e703 833f 9d68 603f d31d 833f a68b 793f
00000190: 9d68 603f 9d68 603f b685 793f 4a22 783f
000001a0: 9d68 603f 09f1 7c3f daf7 793f 58cd 6e3f
000001b0: 9d68 603f 9d68 603f b2c4 753f 12a1 843f
000001c0: 753f 8c3f 9d68 603f 9d68 603f 817a 783f
000001d0: 86ef 5f3f 9d68 603f 0ce1 773f 3ec8 853f
000001e0: b9ff 723f 9d68 603f 9d68 603f 93d0 783f
000001f0: 3d82 803f 5bfc 773f 9d68 603f 9d68 603f
0.8765963 0.8765963 0.8765963 0.8765963 0.8765963 0.9743789 1.034172 1.0840975
1.0146343 0.8765963 1.0227332 0.8765963 0.8765963 1.0473007 0.9877669 0.8765963
0.8765963 0.97889525 0.9981716 1.0189673 0.8765963 0.99890053 0.8765963 0.8765963
0.8765963 0.9734633 0.97436273 0.8765963 0.98466223 0.8765963 1.0562074 0.9654905
0.8765963 0.8765963 0.8765963 0.8765963 1.0282836 0.97130793 0.8765963 0.8765963
1.0213284 0.98487866 0.99978864 1.0127592 0.9682397 0.8765963 0.9908604 1.0302197
1.0287975 1.0157112 1.0001873 1.0513973 1.0299624 0.9755779 1.0456243 0.90519077
0.8765963 0.8765963 0.96917 1.0412933 0.8765963 0.8765963 0.9986724 1.0438634
1.0657599 0.9662507 0.9642301 0.97708243 1.016063 0.91402155 1.0858384 0.8765963
0.8765963 1.0843819 0.8765963 0.9690465 0.8765963 0.8765963 1.0466765 1.0242956
0.8765963 0.97452855 0.9692137 0.8765963 1.0102053 0.8765963 0.97670597 0.9108057
0.87659633 0.8765963 1.0719477 1.0161035 0.8765963 0.9902572 0.9864932 1.0864018
1.0235566 0.8765963 1.0243477 0.9747871 0.8765963 0.8765963 0.9746965 0.9692732
0.8765963 0.9880529 0.97643816 0.9328208 0.8765963 0.8765963 0.9600326 1.0361655
1.0956866 0.8765963 0.8765963 0.97061926 0.8747486 0.8765963 0.9682777 1.0451734
0.9492145 0.8765963 0.8765963 0.9719326 1.0039746 0.9686944 0.8765963 0.8765963

3.bias f4 [128]
00000000: 5ac2 0d3d 1184 a83c ed5c 00bd 01c6 19bd
00000010: 8b9d 203d 0eaf c03b 695e 95bc 1a4e 30bd
00000020: 414c a9bc ebe6 88bc 1d1c 773c c374 e8bc
00000030: 6054 dcbc edef 203d 6105 87bc a427 e33b
00000040: 0165 91bc 1552 0a3c 8419 53bc b78b 733c
00000050: 0307 ac3c 7e8b c33c 94bc 7d3c 470a 03bd
00000060: 33c5 2bbd c335 043c 2ce9 053d f3f3 cdbc
00000070: 8bf3 2ebc f5cc dc3c 02d1 ae3c 67cb 803c
00000080: 4adb 0b3d 27ca b4bc 217e 233d 0a07 a63c
00000090: e5a6 f23c 9bd4 1dbc 0a91 9cbc ea33 16bd
000000a0: 3759 093d e68c aabc bf41 cb3c 8c14 653c
000000b0: e72d d3bb e55f 8fbc a019 d1bc 3190 59bc
000000c0: 0642 773a 7c4a 8fbb 63c0 803c ce48 c63a
000000d0: a16a 4f3c c323 f7bc c87b 23bb 95e1 e43c
000000e0: 0459 e93c f4cf d4bc e997 5f3c 0ad0 aabc
000000f0: d704 fd3c da6f 84bc 398c 98bc f91a c8bc
00000100: 7382 f8bc d6af 6db9 f826 11bd 8e96 803c
00000110: 29e8 b83c 5962 d6bc b0b3 eb3c 616c 07bc
00000120: 5e76 00bb a5b9 4b3c d963 5a3c 1160 fdbc
00000130: 330d 133d 2f72 183c bc0d f6bc 3177 cbbc
00000140: 0d44 b5bc d73e 9dba a6c3 fc3c 7b25 0b3d
00000150: 0b34 773c 7d5e c93c 66f4 703b 72c1 603c
00000160: c7ee 313d 8fe1 1d3d 6ee5 12bd 2ba5 233c
00000170: 954e 283c e8db eb3c 859c ed3a 7e19 9e3c
00000180: 1c2b 12bd 1d5f 413d 9068 cb3c ee78 c53c
00000190: c208 e9bc f936 b2bc bf82 9e3c 9afb 943b
000001a0: c190 3abc 08e2 353d 433f 0abd 9f95 0abd
000001b0: 7370 f7bc e341 013d 06ba ccba 2abb d8bc
000001c0: 5019 0a3d 8968 fb3c 6a94 4a3c ff90 f73c
000001d0: ae47 1a3d 5715 993c bede a4bc 0c96 8dbc
000001e0: 3156 afbc 3b56 f13c fdf3 b7bc 42ca 1438
000001f0: 78eb b7bb 534e 91bc b330 08bd 34a1 41bb
0.034609176 0.020570787 -0.03133862 -0.037542347 0.039212745 0.005880243 -0.018233495 -0.043043233
-0.020666244 -0.016711673 0.015082386 -0.028375989 -0.026895702 0.03929131 -0.016482057 0.0069322158
-0.017748358 0.008442421 -0.012884501 0.014864854 0.020999437 0.023870226 0.015486855 -0.031992223
-0.04193611 0.008069458 0.032693073 -0.025140738 -0.010678182 0.0269532 0.021339897 0.01572199
0.034144677 -0.02206905 0.039915208 0.020267028 0.029620597 -0.009633209 -0.019112129 -0.036670603
0.033532348 -0.020819139 0.024811624 0.01398195 -0.006444681 -0.01750178 -0.025524914 -0.013279007
0.00094321405 -0.004372893 0.015716737 0.0015127899 0.0126597 -0.03016842 -0.0024945606 0.027939597
0.028484829 -0.025978066 0.013647058 -0.020851154 0.030886097 -0.016166616 -0.01862155 -0.024426924
-0.03033564 -0.00022667585 -0.035437554 0.01569679 0.02257164 -0.026169943 0.028772205 -0.008265586
-0.0019601802 0.012434398 0.01332947 -0.030929597 0.03590126 0.009304567 -0.030035846 -0.024837108
-0.022127176 -0.0011996877 0.030855011 0.03397129 0.015088092 0.024581188 0.0036766767 0.013717996
0.043440606 0.038545188 -0.035863332 0.00998811 0.010272642 0.028791383 0.0018128311 0.019299265
-0.035685644 0.047209848 0.024830133 0.024105515 -0.028446559 -0.021754729 0.019349454 0.004546595
-0.011387051 0.044405013 -0.033751737 -0.033834096 -0.030204987 0.031556975 -0.0015619404 -0.026456434
0.033715546 0.030689495 0.012364486 0.030220507 0.037666015 0.018686933 -0.020125743 -0.017283462
-0.021403404 0.029460063 -0.02245521 3.5474317e-05 -0.005612787 -0.017737543 -0.03324957 -0.0029545547

3.running_mean f4 [128]
00000000: 0000 0000 0000 0000 0000 0000 0000 0000
00000010: 0000 0000 fd9f 4140 595e 703e 99a7 f13e
00000020: 8d69 863e 0000 0000 f310 9a3e 0000 0000
00000030: 0000 0000 046a 9b3e 1113 3640 0000 0000
00000040: 0000 0000 f26d 0d40 cb13 a43e f5d8 e93e
00000050: 0000 0000 6ad4 8d3f 0000 0000 0000 0000
00000060: 0000 0000 3d76 8c3f ddd5 ec3f 0000 0000
00000070: 64d8 943a 0000 0000 536d 8c3e 9b1d ae40
00000080: 0000 0000 0000 0000 0000 0000 0000 0000
00000090: fc10 ec3e 0045 8440 0000 0000 0000 0000
000000a0: 12cd 833e 162b 523f 0795 003e 4bdf 463f
000000b0: a5c9 8340 0000 0000 b4b6 523f 5ee1 963c
000000c0: af67 063e 7b24 203f 0f8d 0c3f fadb 113f
000000d0: 439b a33e 9240 5a40 207a 4d3c 0400 0000
000000e0: 0000 0000 0000 0000 d730 8540 7ad4 3f3f
000000f0: 0000 0000 0000 0000 b2e7 713f 30ae a73e
00000100: f416 aa3d 66b6 1741 3e8e ed40 5101 873f
00000110: 029e 0f3f 0400 0000 708d 153e 0000 0000
00000120: 0000 0000 42fa 793c 0000 0000 3a81 c240
00000130: 0000 0000 0000 0000 1384 1a3e 1ed7 303e
00000140: 0000 0000 4c4b 0b40 b4d6 9f40 0000 0000
00000150: 24bc 293f 0000 0000 aec4 0240 0400 0000
00000160: 0400 0000 0000 0000 2065 d13e dee9 1f3e
00000170: 0000 0000 9f65 923f 18e0 473f 7908 cb3e
00000180: b08b 8d3e 0000 0000 f72a a73e a726 1940
00000190: 0000 0000 0000 0000 d1ee 983f adb7 2e40
000001a0: 0000 0000 c4e8 933e 8554 c43f 0400 0000
000001b0: 0000 0000 0000 0000 bc72 b740 5e6d 683e
000001c0: 6dec 823e 0000 0000 0000 0000 1cbc eb3b
000001d0: 0400 0000 0000 0000 28f5 4f40 2f7f bd3d
000001e0: 0400 0000 0000 0000 0000 0000 62e9 9540
000001f0: dbf7 473f 3a59 6440 0000 0000 0000 0000
0.0 0.0 0.0 0.0 0.0 3.02539 0.23473491 0.4719818
0.26252404 0.0 0.30091056 0.0 0.0 0.3035432 2.8449137 0.0
0.0 2.2098355 0.3204635 0.45673338 0.0 1.1080449 0.0 0.0
0.0 1.0973583 1.8502766 0.0 0.0011355993 0.0 0.27427158 5.441114
0.0 0.0 0.0 0.0 0.46106708 4.133423 0.0 0.0
0.25742394 0.82096994 0.1255685 0.7768447 4.118365 0.0 0.8231003 0.01841801
0.1312549 0.62555665 0.5490274 0.5697628 0.31954393 3.410191 0.012541324 6e-45
0.0 0.0 4.162212 0.7493359 0.0 0.0 0.94494164 0.32750082
0.08305159 9.482031 7.4236135 1.0547277 0.56100476 6e-45 0.14604735 0.0
0.0 0.01525742 0.0 6.0782747 0.0 0.0 0.15089445 0.1726956
0.0 2.1764708 4.994959 0.0 0.66302705 0.0 2.0432544 6e-45
6e-45 0.0 0.40897465 0.15616557 0.0 1.1437262 0.78076315 0.39654902
0.27645636 0.0 0.32649967 2.3929842 0.0 0.0 1.1947881 2.7299607
0.0 0.28888524 1.5338293 6e-45 0.0 0.0 5.7327557 0.2269797
0.25571004 0.0 0.0 0.0071940552 6e-45 0.0 3.2493382 0.09252774
6e-45 0.0 0.0 4.684739 0.7811257 3.567946 0.0 0.0

3.running_var f4 [128]
00000000: 0400 0000 0400 0000 0400 0000 0400 0000
00000010: 0400 0000 c7c2 5240 284d 263e 698b f83e
00000020: bc42 3e3e 0400 0000 9051 083e 0400 0000
00000030: 0400 0000 8110 2e3e 2cf8 7040 0400 0000
00000040: 0400 0000 cf1d f23f de31 5c3e d44a 853e
00000050: 0400 0000 3430 a73f 0400 0000 0400 0000
00000060: 0400 0000 4249 573f e5e6 bb3f 0400 0000
00000070: 0de2 7239 0400 0000 d0ef 0d3e 8920 1f41
00000080: 0400 0000 0400 0000 0400 0000 0400 0000
00000090: a136 a73e d019 bb40 0400 0000 0400 0000
000000a0: 2a8d e93d d868 8a3f 499f af3d d73d 5a3f
000000b0: cc82 be40 0400 0000 cef5 053f da9a 693b
000000c0: bf13 1d3d f93c de3e 31f3 853e a405 ca3e
000000d0: 8f3c 033e e74d a040 5c66 3e3b 0400 0000
000000e0: 0400 0000 0400 0000 081e be40 3129 993f
000000f0: 0400 0000 0400 0000 688d a63f 083a ae3e
00000100: fa34 5e3d 6e0c eb41 e608 9841 1790 2d3f
00000110: 2a85 c53e 0400 0000 e493 e33c 0400 0000
00000120: 0400 0000 2b7f 383b 0400 0000 c279 4641
00000130: 0400 0000 0400 0000 eea5 053e d046 e33d
00000140: 0400 0000 a06c de3f 74c2 0c41 0400 0000
00000150: 3780 103f 0400 0000 1ed9 c63f 0400 0000
00000160: 0400 0000 0400 0000 c7fc fc3e 62f2 f33d
00000170: 0400 0000 22da b53f 7b58 ed3e a486 6b3e
00000180: e706 773e 0400 0000 8a62 113e 3b3b 1940
00000190: 0400 0000 0400 0000 4ba6 353f 00ef 3040
000001a0: 0400 0000 65ef 3e3e 5d18 1240 0400 0000
000001b0: 0400 0000 0400 0000 47b3 2b41 dec9 073e
000001c0: 430f ef3d 0400 0000 0400 0000 ed68 5b3a
000001d0: 0400 0000 0400 0000 36e8 6640 8d6f 4b3d
000001e0: 0400 0000 0400 0000 0400 0000 1a1a f340
000001f0: bbe4 9b3f 282a ad40 0400 0000 0400 0000
6e-45 6e-45 6e-45 6e-45 6e-45 3.2931383 0.1624037 0.48543862
0.18580145 6e-45 0.13312364 6e-45 6e-45 0.16998483 3.7651472 6e-45
6e-45 1.8915347 0.21503398 0.26033652 6e-45 1.3061585 6e-45 6e-45
6e-45 0.8409616 1.4679838 6e-45 0.00023163129 6e-45 0.13861012 9.945443
6e-45 6e-45 6e-45 6e-45 0.32658866 5.846901 6e-45 6e-45
0.11403878 1.0813246 0.08575303 0.8525061 5.9534664 6e-45 0.52328193 0.0035645277
0.03834891 0.43405893 0.26162103 0.39457428 0.1281607 5.0095096 0.002905271 6e-45
6e-45 6e-45 5.941166 1.1965696 6e-45 6e-45 1.3011904 0.3402865
0.05424974 29.38107 19.004345 0.6779799 0.3857816 6e-45 0.02778048 6e-45
6e-45 0.002815197 6e-45 12.404726 6e-45 6e-45 0.13051578 0.11097491
6e-45 1.73769 8.797474 6e-45 0.5644564 6e-45 1.5535009 6e-45
6e-45 6e-45 0.49411604 0.11911465 6e-45 1.4207194 0.46356568 0.2300058
0.24123727 6e-45 0.14197746 2.3942401 6e-45 6e-45 0.7095687 2.7645874
6e-45 0.1864601 2.282737 6e-45 6e-45 6e-45 10.731269 0.132606
0.11672833 6e-45 6e-45 0.0008369822 6e-45 6e-45 3.607923 0.04966693
6e-45 6e-45 6e-45 7.596936 1.2179178 5.411396 6e-45 6e-45

4.weight f4 [128, 128]
00000000: 045f 033d 3ed0 9bbc 3753 b7bd a15b b4bd
00000010: 7e9f d73d d0fd 363b b1ac c2bd 940f 19be
00000020: 9858 3d3d b638 453d 526d 0abd 390f 56bc
00000030: 16ea 393d 61a5 ec3d 4f9d 093d 216b 7e3d
00000040: 6842 8dbd 283b 65bc 9215 36bd d081 203d
00000050: 8e2d 873c 3a14 643d 41f5 6f3d 57e4 92bd
00000060: 9a54 3e3c 5e60 1b3d f017 62bd feaa 2fbd
00000070: e34c 72bb c674 59bc fe20 033e 38f9 933c
00000080: f304 8abc 599a 763d 2bb1 0b3b 483b 2c3d
00000090: e344 0d3c 08ae 7abd cbe1 c2bd 94be ff3c
000000a0: 5307 a03d 5605 dfbc 2df3 5c3d 1c8f 8bbd
000000b0: 924f 5ebb fb29 21bd 33a6 743c cd23 85ba
000000c0: 43b2 8a3c b505 fdbb 6f46 743d 3a2a 8d3d
000000d0: 99c7 ba3d 38db a03b fe5e e1bd 73e6 af3d
000000e0: 08a4 a83d 4991 18bd 56be 803d b21c 68bd
000000f0: ceac edbc 9160 02bd da83 80bd 1045 bfbd
00000100: b389 d9bd 82b4 623d 6070 01bd d757 643d
00000110: 4ab8 0d3b 2e10 91bd 7e18 263b 0611 c83c
00000120: 8906 f83b abee b73d e8be 48bd 7cf8 a7bc
00000130: 5820 a23d 8ad5 813d b69b e7bc 4c25 ddbd
00000140: 9ad9 ca3b a32a b3bd 9029 693d 3bd5 323c
00000150: c8bc f73c 65ae 07bd a9ff be3c da81 143d
00000160: d1a2 c43d 6165 c53d 44a6 d4bd 7a11 a93d
00000170: 9b6f 71bd 7f1d c8bd 1056 51bb 6497 a93d
00000180: 32c7 a03c 703f 223d 5a73 8f3d 890f 2d3d
00000190: bce5 e5bc d9a1 703c cab5 46bd bcc8 26bc
000001a0: a8ae ec3c 90aa b03c 3564 803c f86e 65bd
000001b0: 9b8c a3bd cb0b 0abd 2613 9bbc 523f a2bd
000001c0: 7ca5 c53d f920 debc 9bf0 8ebc f8fa 00bc
000001d0: 9ceb 403d c8cb 1f3c 342e 8c3c 98c4 8fbb
000001e0: b71f d0bd f3f0 313d 8d53 c73c 9a1b 1bbd
000001f0: 0c71 523d 6dfc 9bbd 2005 43bd 46d3 afbc
00000200: d0d6 a4bd a082 083d 11ea e53b 1ba7 423d
00000210: 0619 87bd daf6 75bb d443 91bc e95f 42bd
00000220: 5a6c febd c1a9 75bd 1f7c f93d a1af 2f3d
00000230: 6f43 263c ecfd f83a 1fb4 56bc 98d2 4abb
00000240: 7a6f d7bb d4cf 99bd 18bc da3c 86be 393d
00000250: f7bc 753d e397 8f3d 0251 ebbc c7e9 01bd
00000260: a0e1 3bbd 771e 463d f60a 093c 5947 89bd
00000270: c7ff 81bb d5ca 9fbd 5ff7 033e 60a8 a7bb
00000280: 5ab6 1f3d 6e1b bb3c 9324 09bd c862 95bd
00000290: 06ee 98bd 958b 3d3d d22e a33c 086f 643d
000002a0: 2405 3ebd c426 b6bc 2037 b2b9 2c1d 5cbd
000002b0: 8765 cc3c 1d0f e3bc 8715 bdbc 880d 3eba
000002c0: 170c 1abd ace7 043d 3ed0 38bc a6a4 31bd
000002d0: 61cc 943d d8ed 47bc 5caf 95bd 7f5d deba
000002e0: e29f b23d 34cb 03bd 4c10 783d 0cbd 15bd
000002f0: 9c14 90bc b61f 203d 90b8 73bd fd08 06be
00000300: 6eda 9dbd 7a49 04bd e3e2 27bd c832 a1bd
00000310: 985e 353d 33cb 363d 537f ec3d f694 84bc
00000320: 6b07 42bd c031 9f3d 590c e13c dc54 db3b
00000330: 14f4 8cbd eea3 89bc 7513 c6bb 6568 cebd
00000340: 960d 43bd 2acd 6e3d 2e37 3f3d b663 0d3d
00000350: 1ee2 803d 85d2 243d 51f4 9b3d f468 8aba
00000360: 93a0 6e3c d515 80bd ca8a 8b3b c39a 69bd
00000370: c38b 883d 694e de3a d0fc 7ebd b903 243e
00000380: b671 b2bd 99f2 8abd 0ba8 573d dd8d e33c
00000390: f29c a4bd 627f 3d3c f2dc 143c 81c6 a5bb
000003a0: b2c9 33bd c3b2 a73d a342 f6bb 8f96 85bd
000003b0: c262 53bc 26f8 93bd 2f02 8bbd bd54 e8bd
000003c0: b57f f13d e44a 38bd e324 47bc 39a8 a03d
000003d0: eaa6 2b3d be9c 383d 2f02 8b3d b5e4 e7bd
000003e0: f134 553d 02d8 223d 5957 283d 33fb ff3c
000003f0: 0313 5bbd 990d 913d 3b95 8cbc ebb2 11bd
0.032073036 -0.019020196 -0.08951419 -0.08806539 0.105284676 0.002792228 -0.095055945 -0.14947349
0.046227068 0.048149787 -0.033795662 -0.013065153 0.045389257 0.11554981 0.033597287 0.062113885
-0.068974316 -0.013991155 -0.044454165 0.0391863 0.016501214 0.055683352 0.0585835 -0.071724586
0.01161685 0.0379337 -0.05519861 -0.04288768 -0.0036972098 -0.01327247 0.12805554 0.018063173
-0.016848063 0.06020579 0.0021315317 0.042048723 0.008622381 -0.061201125 -0.09515723 0.031218804
0.07813897 -0.027224224 0.053942848 -0.06814405 -0.003392194 -0.039346676 0.014932203 -0.0010157764
0.016930705 -0.0077216276 0.059637483 0.0689282 0.091201015 0.0049089454 -0.110044464 0.085888766
0.082344115 -0.03724793 0.06286304 -0.05666799 -0.029013064 -0.031830374 -0.06275149 -0.093393445
-0.10621967 0.055347927 -0.03160131 0.055747833 0.0021624737 -0.07083164 0.0025344188 0.02442218
0.0075691384 0.08981069 -0.049010187 -0.020504229 0.07916325 0.063395575 -0.028272491 -0.107981294
0.006190491 -0.08748367 0.056924403 0.010915096 0.030241385 -0.0331253 0.023315268 0.03625665
0.09601367 0.09638477 -0.10383275 0.082552865 -0.058944326 -0.09771251 -0.0031942166 0.082808286
0.019626234 0.03961128 0.070044234 0.042251144 -0.028063647 0.014687025 -0.04851321 -0.010179695
0.028891876 0.021565706 0.015672782 -0.05601403 -0.07985803 -0.033702653 -0.01893003 -0.07922234
0.09650704 -0.027115332 -0.017448714 -0.007872336 0.047099695 0.009753175 0.017111875 -0.0043874495
-0.10162299 0.043442678 0.024331832 -0.03786812 0.05137734 -0.07616506 -0.04761231 -0.021463048
-0.08048785 0.0333277 0.0070164283 0.047522645 -0.0659657 -0.0037531168 -0.017732538 -0.04745475
-0.1242301 -0.059976343 0.12181877 0.042892102 0.010147913 0.0018996573 -0.013104468 -0.0030948278
-0.0065745683 -0.07510343 0.026701018 0.045347713 0.059994664 0.07011392 -0.028725151 -0.031717088
-0.04586947 0.048368897 0.00836443 -0.067030616 -0.0039672586 -0.07802359 0.12887333 -0.0051165074
0.038992263 0.022840228 -0.033482146 -0.07294232 -0.07467274 0.046275694 0.019919787 0.05576995
-0.04639162 -0.022235282 -0.00033991877 -0.053738758 0.024950756 -0.027717168 -0.023081554 -0.0007249941
-0.037609186 0.032447502 -0.011280118 -0.04336991 0.07265545 -0.012202702 -0.07308838 -0.001696512
0.087219015 -0.03217621 0.060562417 -0.036557242 -0.017587952 0.039092742 -0.059502184 -0.13089366
-0.07707678 -0.032296635 -0.04098786 -0.07871014 0.044279665 0.04462738 0.11547723 -0.016184311
-0.047370356 0.07773161 0.027471708 0.0066934656 -0.06882492 -0.0168018 -0.0060448 -0.100785054
-0.04762038 0.05830113 0.046683483 0.03451892 0.062931284 0.04023983 0.07614959 -0.0010559843
0.014564651 -0.06254164 0.0042584883 -0.057032358 0.066672824 0.0016960624 -0.06225282 0.16017045
-0.08713095 -0.06784553 0.052650493 0.027777607 -0.080377474 0.011566015 0.009085881 -0.005059064
-0.043893524 0.08188393 -0.007515268 -0.065228574 -0.012901964 -0.07225065 -0.06787526 -0.113442875
0.11791936 -0.044993296 -0.012154791 0.07844586 0.04190723 0.045071356 0.06787526 -0.11322919
0.052052442 0.039756782 0.041098926 0.03124771 -0.053484928 0.07082672 -0.017161002 -0.03557102

4.bias f4 [128]
00000000: 9dec 853d 2f44 8e3d ed8c 15bd 945b 2dbd
00000010: bcd1 b33d e8fc 993d 1de3 753d d4d3 22bc
00000020: aeb5 af3d a907 73bd ed46 f4bc 103a c43d
00000030: f38c 32bb 1cff 46bd 00ae 10bd 1344 273d
00000040: 61ee d0bc e7d3 f1bc 8785 a13d e81e 6dbd
00000050: aae7 b23d 8d89 203c 724b ba3d 56f6 d53a
00000060: 4a71 8fbb 6fc0 903d e9b1 983b 2782 7e3d
00000070: fa1d 9abb c7ba 0e3d 3021 2bbd 177c 0ebd
00000080: 1c77 283d fe73 ea3b fcd0 c33d fe9d 843d
00000090: 2500 8abb c316 623d 2522 d9bc 1ff1 553d
000000a0: 9495 933d 7b56 a43d a77f 013b 17fe 69bc
000000b0: 11be af3c a8c6 863d 0493 b73d 482d b23d
000000c0: 6a9a 9b3d dab7 8dbd b75d a93d cfa9 173d
000000d0: c449 a6bc 0130 eebc f3a2 0ebd 4dda e03d
000000e0: 348f 31ba 83ad d43d 65ec 62bd da93 64bd
000000f0: a3ea a0bd c892 a23d 8908 92bd 5307 40bd
00000100: f9c4 2c3d f8bc 543d 375e 563c 0fa9 63bc
00000110: 028c 473d 90da 32bd ac6f 853d bd78 dfbc
00000120: 8825 9bbd a0a7 693d 1b82 1d3c 3d76 98bd
00000130: 520b 183c e64b c33b 452a 133c 839a 2cbc
00000140: 3042 843d 1c66 793d 17fc 8dbc dfaf 6f3c
00000150: da56 b23d 6b1b a13d f3be 0a3d 985b 103e
00000160: 0417 65bd e40b 183c 306b 813d 072b 9bbd
00000170: 31ef 7b3d a6f7 413d 759c 723d b82b b83d
00000180: f892 91bd e7ee 4bbd 8496 94bd b7b8 a1bc
00000190: 8bfd a23b d170 51bd e4cc 99bd 8d86 55bd
000001a0: a5ab d2bc 7bd5 c93d eb08 f1bc dd7a b03d
000001b0: bcef c53d 32f2 5f3d 5101 7d3d 7431 88bd
000001c0: a139 173d 7dc8 c5bc 25d9 9ebc e963 3fbd
000001d0: b690 69bd 061b 263d bfdf 92ba 6b7e 7dbd
000001e0: fb86 c7ba b10d 4c3d a390 9f3d 2c96 be3d
000001f0: f729 1f3d d9e3 de3d 81e3 f53d a0c1 ccbc
0.06539271 0.06946599 -0.03651135 -0.042323664 0.08780238 0.07518941 0.060031045 -0.009938199
0.085795745 -0.059333477 -0.029818976 0.09581387 -0.0027244657 -0.048583135 -0.03532219 0.040836405
-0.025504293 -0.029519988 0.078867964 -0.057890803 0.08735593 0.00979842 0.09096421 0.0016324024
-0.004377519 0.07067954 0.0046598804 0.06213584 -0.0047032805 0.034846094 -0.041779697 -0.03478631
0.041129217 0.0071549406 0.09561345 0.06475447 -0.004211443 0.05519749 -0.02650554 0.052231904
0.07206264 0.08024307 0.0019759925 -0.014281771 0.021452935 0.065808594 0.08963588 0.08700043
0.075978115 -0.069198325 0.08269828 0.037027176 -0.020298846 -0.029075624 -0.03482337 0.109791376
-0.0006773353 0.10384657 -0.055401225 -0.055805065 -0.078572534 0.079381526 -0.07130534 -0.046881985
0.042180035 0.051938027 0.013083986 -0.013895287 0.048717506 -0.04366547 0.0651544 -0.027279252
-0.07575518 0.057044625 0.009613539 -0.07444427 0.009280043 0.0059599755 0.008982246 -0.010534885
0.06457937 0.060888395 -0.01733212 0.014629333 0.08707972 0.07866558 0.03387351 0.1409744
-0.055930153 0.009280179 0.063192725 -0.07576566 0.061507408 0.047355317 0.05923124 0.08992714
-0.0710811 -0.049788382 -0.07255271 -0.0197414 0.0049740723 -0.05113298 -0.07509783 -0.05213027
-0.025716612 0.09855171 -0.029423198 0.08617184 0.09664866 0.054674335 0.061768834 -0.066500574
0.036920194 -0.024143452 -0.019390652 -0.04672614 -0.057022773 0.040553115 -0.0011205598 -0.06188814
-0.0015222722 0.049817745 0.07791259 0.09305987 0.03885838 0.10883302 0.120062836 -0.024994671

7.weight f4 [2, 128]
00000000: 75c3 1ebe de15 6ebe 667e 953d 40b4 54bc
00000010: 9778 49be d20c b23d a149 09bd 9516 953c
00000020: 5a37 ec3d 9058 c33c 0eb4 c93d 9bd4 05be
00000030: b219 d8bd a9ef cdbc 2051 033b e539 e43d
00000040: 9701 813d d906 c5bb e253 063e a37d 03bd
00000050: 1565 b6bd 8b7b 8abd b24d f8b9 8813 c3bd
00000060: 2f15 18bd 2209 23be 88ab b3bb e710 54be
00000070: c2e0 933d efa6 82be 37b9 f9bc 0ed9 24be
00000080: 5c32 2f3e 8a01 6fbe 7aaa 2ebe dde8 0fbe
00000090: 6280 ffbd 3d5a b4bd 9a78 dc3d 68ed 41be
000000a0: c00b a8bc 3710 bfbb 415a f6bc ce8b 0d3c
000000b0: 7f67 efbd 430c 103e 7282 03be bd13 15bd
000000c0: f526 98bd d0a8 e4bd 949e a23d b7ac bebd
000000d0: 40cd fbbd 5923 dc3c da60 dfbd 95bd 2ebe
000000e0: c632 0ebe 0e19 71bd ab25 d13d 5b75 bc3d
000000f0: 6a4e 18bd db94 1c3e 76b3 f4bc 95b4 82bd
00000100: b9b6 b3bd e022 72bd ea77 bebd b584 acbd
00000110: 0f5a a5bd b3e5 e0bd fc5e eb3d 005b 123e
00000120: e56b 84bc 0204 d8bd b42f 223e 9dfa 523d
00000130: 80b6 f4bc 091a 063d e3bd 3e3e b72b 973d
00000140: 14e3 073e 29f1 283e 85c8 423e ecdb c23d
00000150: 4711 07be 3598 32be 6e10 28be fad6 63be
00000160: f768 59bd d869 b1bc 5572 0f3e 8188 babd
00000170: f26f dfbd 2bef ddbc 8ec1 32bd 5567 033c
00000180: c517 0e3d 7a8e 703d cec1 7c3d 52b6 28bd
00000190: d4b7 ae3b 3fb5 fcbd b637 c2bd 0b93 48bd
000001a0: 9fb3 61bd 5491 6d3e 9bb8 0f3e ce3c c73d
000001b0: abde 4fbe c3e2 40be 8122 b8bd 6587 c43d
000001c0: 8b48 abbd 8ff1 733d a47d 12bd 5b75 823c
000001d0: 50ea 7d3d 63ef 8d3d 2f25 1cbd f38f 16bc
000001e0: 8053 783c aa20 98bd 3f54 2cbe 1458 09be
000001f0: b090 b5bd c6f3 6b3d d266 3bbe ec5d c33c
00000200: a578 5f3e 0d9d 273e 593e 13bb d7f2 b1bd
00000210: cc93 d43d 93da 6f3c 8194 353e 1587 92bd
00000220: 306b 39be a6b9 d3bd f341 71bd fe6b 203d
00000230: 6657 173e 67df bf3d fa23 1b3e a1a6 87bd
00000240: 1273 893c f075 f9bd f092 a9bd b265 833d
00000250: 9bfa f33d e65f 6f3d ac32 053e f320 973c
00000260: 06bb ecbd e85c 173e 44af c3bd 50d9 613e
00000270: 19a4 c7b9 bc08 7f3e 8026 933d 7659 a73d
00000280: 7a09 73bd 3e0d 313e 0fb8 5d3d 3125 e23d
00000290: 1eac d3b9 1ace dd3d aee0 28be 0696 323e
000002a0: 3d4b 8bbd 28c6 8bbd 6767 923c 86cf 033d
000002b0: df83 f13c 6ed1 01be 7f5c 253e 38e2 8c3d
000002c0: dfb7 5dbc 930e 4b3b 2c41 a2bd 23d8 823d
000002d0: f9f0 093e 4625 85bd 6937 c23d 944b 0c3e
000002e0: 1815 0e3e ad80 183e 3bfd 08bd 704b 3d3d
000002f0: 69e1 d0bc 28de 1fbe 8fa7 9bbd 8c6f 013d
00000300: ca1d 803d ac47 0b3e bd70 9c3d 28f2 493e
00000310: ed5e 20bd 5698 37bc a2b1 01bd c3e8 a83c
00000320: 1d20 b73c bd88 0d3e f355 d1bd bb65 723d
00000330: cebf 973c cff5 21bd 6d70 3ebe 695b c2bd
00000340: 8feb 7ebc 5f97 39be defa 8abd ed23 0dbe
00000350: 8b1f 013e 0b9b 303e 3e1a cc3d 3587 423e
00000360: 8bd3 d33d 79bd a6bd 87f7 2ebe be12 1c3d
00000370: 5202 093d 7867 0f3e 1394 03bd ca1e 28bd
00000380: c743 0cbd 17b5 fbbc 932c 97bc 6931 b9bd
00000390: 9acc 8f3d e9be 813d df63 58bd 9e30 2c3e
000003a0: 7d6e 823d 9bfb 6abe 2f1d 46bc 70fb 01be
000003b0: ff34 493e c808 613d 14e4 5138 031d 6f3c
000003c0: 81b8 5e3c 6836 50bd 93f0 053d 4f10 c1bd
000003d0: 266a 1ebe 964d efbd b3d1 333d ec72 debd
000003e0: 8bb0 ac3d 64fd 40bc 19ad ef3d e242 143d
000003f0: 7f37 4c3e f9f2 b1bd a1f2 3d3e 4dee ae3d
-0.15504248 -0.23250529 0.07299499 -0.012982428 -0.19674908 0.086938515 -0.033517484 0.018199245
0.11533995 0.02384594 0.09848796 -0.13069384 -0.10551776 -0.025138693 0.0020037368 0.11143855
0.06299131 -0.006012779 0.13117936 -0.03210224 -0.089059986 -0.06761845 -0.00047360134 -0.0952521
-0.037129577 -0.15921453 -0.0054830946 -0.20709573 0.072206035 -0.25517985 -0.030483825 -0.16098425
0.17109054 -0.23340431 -0.17057219 -0.14053674 -0.12475659 -0.08806274 0.107651904 -0.1893822
-0.020513415 -0.0058307904 -0.030072333 0.008639289 -0.11689662 0.14067177 -0.1284273 -0.036395777
-0.074293055 -0.11165011 0.079404026 -0.093102865 -0.12295008 0.026872324 -0.10907145 -0.17064507
-0.13886556 -0.058861785 0.10212263 0.09202071 -0.037184156 0.15291159 -0.02987073 -0.063820995
-0.08775086 -0.05911529 -0.093002155 -0.08423749 -0.08073818 -0.10981312 0.11492726 0.14292526
-0.01616473 -0.105476394 0.1583851 0.051508535 -0.029872179 0.032739673 0.18627124 0.07381385
0.13270217 0.16498245 0.19021805 0.09514603 -0.13190185 -0.17440875 -0.16412517 -0.22249976
-0.053078618 -0.021656916 0.14008458 -0.09108067 -0.10910024 -0.027091583 -0.04364162 0.008020242
0.034690637 0.058729626 0.061708264 -0.0411895 0.0053319726 -0.123392574 -0.09483282 -0.048968356
-0.05510294 0.2319997 0.14035265 0.097283944 -0.20299785 -0.18836503 -0.08990956 0.09596137
-0.08363446 0.05955654 -0.03576435 0.0159251 0.061991036 0.06930425 -0.0381214 -0.009189594
0.015156627 -0.07428105 -0.16829012 -0.13412505 -0.088654876 0.057605527 -0.18300942 0.023848496
0.21823366 0.16368504 -0.0022467582 -0.08688896 0.103797525 0.0146395145 0.17732431 -0.07154671
-0.18107295 -0.10338144 -0.058900785 0.03916549 0.14779434 0.093687825 0.15150443 -0.06623579
0.016778503 -0.12180698 -0.08279979 0.06415881 0.119130336 0.058441065 0.13007611 0.018448329
-0.115591094 0.14781535 -0.09554914 0.22055554 -0.000380785 0.24905676 0.07185078 0.0817136
-0.05933521 0.17290208 0.05413061 0.1104225 -0.00040373293 0.108303264 -0.16491958 0.17440042
-0.0680146 -0.06824905 0.017871572 0.03218033 0.029481826 -0.12677547 0.16148566 0.06879085
-0.013532608 0.0030984029 -0.07922587 0.06388881 0.1347083 -0.0650125 0.09483225 0.13700706
0.13875234 0.14892836 -0.033444624 0.04621452 -0.025498109 -0.1561209 -0.07600319 0.03160052
0.06255682 0.1360156 0.076386906 0.19721282 -0.03915303 -0.011205753 -0.031663544 0.020618802
0.02235418 0.13821693 -0.10221472 0.05917905 0.018524077 -0.039541062 -0.18597575 -0.09490091
-0.015559091 -0.1812415 -0.0678613 -0.13783236 0.12609689 0.17246644 0.09965943 0.1899689
0.10343083 -0.08141608 -0.17086612 0.03810381 0.03344948 0.14004314 -0.032123636 -0.041044988
-0.034244325 -0.030725999 -0.018453872 -0.09042627 0.070214465 0.06335241 -0.05282962 0.16815421
0.0636873 -0.22947542 -0.012091919 -0.12693572 0.19649123 0.054940015 5.0041897e-05 0.014594319
0.013593794 -0.050833136 0.032700133 -0.09426939 -0.1547018 -0.1168472 0.043901157 -0.10861763
0.084321104 -0.011779163 0.11702938 0.036196597 0.19943045 -0.086889215 0.18549587 0.08541546

7.bias f4 [2]
00000000: 3700 2bbd 6033 003e
-0.04174825 0.12519598
