save/rectified_flow/rectified_portraits.pt (torch, 49847 bytes, 6 tensors)

fc1.weight f4 [100, 9]
000000 b9 6f 4b 3e 47 1f 8a bf f7 5f 9f 3f 98 e2 56 3d
       0.19866838 -1.0790795 1.2451161 0.05246219
000010 0f 69 f0 3e 9c 2f 37 be 82 fe 1a bf fe 7b b0 be
       0.46955153 -0.17889255 -0.605446 -0.344696
000020 d0 1d ae 40 8c b9 f8 be a3 2c 32 bf 1f be ea 3e
       5.441139 -0.4857906 -0.6959936 0.45848176
000030 c0 c8 1d bf dc dd c9 3f 96 9a 57 3f 41 e6 85 bf
       -0.61634445 1.5770831 0.84220254 -1.0460893
000040 91 14 3a bd 81 e0 f6 3f 4c 2d c5 be 33 f2 53 be
       -0.04542977 1.9287263 -0.3851112 -0.2069786
000050 a0 5d 39 be 33 3c 8d 3d 96 1e 7d bd 4c 1f 5c be
       -0.18102121 0.06896248 -0.061796747 -0.21496314
000060 e2 51 30 be 6c 0d ae be aa e4 2a be 24 c1 9f 3f
       -0.17218736 -0.33994615 -0.16688791 1.2480817
000070 a6 33 86 be 22 aa b5 bf cc 82 2f 3f 25 c3 a2 3b
       -0.2621128 -1.4192545 0.68558955 0.0049671107
000080 6b 96 17 3f 83 40 51 bf ee 63 e2 be 21 67 93 c0
       0.59213895 -0.8173906 -0.44216865 -4.606339
000090 ac 7a 12 be da bd 82 3f 58 00 c3 bf f9 a5 ee bd
       -0.14304608 1.0214188 -1.523448 -0.116527505
0000a0 c0 ab f4 3e a7 29 7c be af f4 66 bf c5 cf c6 3e
       0.47787285 -0.24625264 -0.9021711 0.3883039
0000b0 6d 81 58 3d 67 37 8a be d2 57 b3 be 27 ce e3 be
       0.052857805 -0.26995394 -0.3502794 -0.4449322
0000c0 fb 3c 9f be 5d fe 58 be ea eb ae be 69 3b 24 3d
       -0.31101212 -0.21190782 -0.34164363 0.04009572
0000d0 4c 5a e8 3d 66 86 d5 be 25 1d 9b bf 77 9f e5 3d
       0.11345348 -0.417041 -1.2118269 0.11212056
0000e0 09 63 20 3f 2a 95 a9 bf be b8 20 bf a3 01 c1 3f
       0.62651116 -1.3248646 -0.62781894 1.5078624
0000f0 22 62 30 3f cb 26 24 3f 52 8c 80 bf 0d 99 93 3f
       0.6889974 0.64121693 -1.0042822 1.1531082
000100 d6 32 ff be c4 87 8e 3f a7 dc 62 be 25 cc 88 bf
       -0.49843472 1.1135182 -0.22154485 -1.06873
000110 12 32 ed bd a7 25 12 bf 49 37 88 3e d7 ab 83 3f
       -0.11581816 -0.570887 0.2660468 1.0286816
000120 ae 01 50 be 59 20 0a be 8c fa 00 bf f2 0f b9 be
       -0.20313141 -0.13488902 -0.50382304 -0.36144978
000130 b9 60 c1 be e1 5b 57 be 1f 1c 81 bd 3b af 88 bd
       -0.37769106 -0.21031143 -0.06304192 -0.066740476
000140 3d 21 84 bd 39 21 19 3f 48 98 7e bf 33 6e 0c 3f
       -0.06451652 0.5981632 -0.9945111 0.5485565
000150 82 28 c9 be 2b 76 02 bd c9 ae be 3f 5b 2d 3a bf
       -0.39288718 -0.031850975 1.489709 -0.72725457
000160 d2 bd 49 bf 52 f8 e8 3e ac 30 05 3e 70 e2 e9 bc
       -0.7880527 0.45501953 0.13006848 -0.028550357
000170 ea e5 d1 3e f4 e0 29 3d f0 f0 47 3c d7 7a c6 3e
       0.40995723 0.041474298 0.01220344 0.38765594
000180 92 64 ca 3e d7 a7 fb 3e 3b 19 a9 bd 18 f6 84 be
       0.39529854 0.4915149 -0.082567655 -0.25969005
000190 bc 0f a8 bc 8e 2b 72 3e 04 a6 72 be 03 5b af bf
       -0.020515315 0.23649427 -0.23696142 -1.369965
0001a0 24 78 18 3f 41 5b f6 3f de 89 79 be f9 79 e2 3e
       0.5955832 1.9246598 -0.24368998 0.44233683
0001b0 e2 ca 8b 3f 69 c3 9b 3e e6 9e 4c bf 2e 7e a6 bf
       1.092129 0.30422524 -0.7992996 -1.3007257
0001c0 b5 ae 29 bf 5a c0 33 3f e7 86 72 3f 91 5a aa be
       -0.66282207 0.7021538 0.94737095 -0.33272222
0001d0 f0 0a 84 3f 64 45 9a 3c 06 f7 af 3e 66 50 93 3e
       1.0315838 0.018831916 0.3436815 0.28772277
0001e0 a9 9e d5 bd 52 3c bf 3e b2 d1 e6 3e ff c8 27 3c
       -0.10430653 0.37350708 0.4508186 0.010240792
0001f0 53 21 36 3e 92 6c 51 bd ae 1d 86 3d fa 2b 4d 3f
       0.1778615 -0.05112893 0.0654863 0.8014523
000200 fa f9 70 3f e5 8d d2 bf 13 18 7a 3f 12 33 a9 bf
       0.94131434 -1.6449553 0.97692984 -1.321871
000210 5c 97 26 bf d6 e4 d5 3e bc a8 97 3f 22 53 37 bf
       -0.65074706 0.4177615 1.1848369 -0.71611226
000220 fd b6 4e 3e e4 b2 49 3f 33 2d 27 3f 54 87 8a bc
       0.20186992 0.7878859 0.65303344 -0.016910233
000230 07 18 d0 bf 01 13 49 3f 6f 93 44 3e 4a 9c df 3f
       -1.6257333 0.7854462 0.19196866 1.7469571
000240 f8 61 16 3e 2e 3b ac 3e 9c c3 05 3e 40 42 63 3e
       0.1468581 0.336389 0.130629 0.22193241
000250 85 34 20 3e 97 53 0a 3e e6 a3 39 3e 89 ad 4e 3e
       0.15645035 0.1350845 0.18128929 0.20183386
000260 eb 9a bd be 7b 70 6a 3f f3 38 e6 3e 14 5c c4 3e
       -0.37032256 0.9157788 0.44965324 0.383515
000270 93 61 a8 bf 40 52 43 bf 40 26 10 3f 9c 82 59 3f
       -1.3154777 -0.7629738 0.56308365 0.8496492
000280 72 55 39 bf 2d 62 97 bf 03 e1 d7 bd c9 6e 5f 3f
       -0.72396004 -1.1826836 -0.105409645 0.8727842
000290 30 02 17 bf 35 a3 90 bd 27 2b 04 3f e3 98 84 3f
       -0.5898771 -0.07062379 0.51628345 1.0359157
0002a0 ce 16 8a bf 8e f5 78 bf c3 3b e5 bc dd 15 77 3e
       -1.078821 -0.97249687 -0.027982598 0.24129434
0002b0 7c e3 76 3e 38 f8 b0 3e d2 7f d6 3e c5 fe 08 3e
       0.24110216 0.34564376 0.41894394 0.13378437
0002c0 ef cb ee bd e0 82 b0 3e 37 b4 18 3e 23 d1 b0 bd
       -0.11659991 0.3447485 0.14912497 -0.0863364
0002d0 64 bb aa be 4d fb d8 bd 3a 89 1e be 4e 81 2e be
       -0.33346093 -0.10594807 -0.15482035 -0.17041513
0002e0 a5 53 a7 bd d8 a4 8c be 70 bf 20 be 17 93 2a be
       -0.08170251 -0.27469516 -0.15698028 -0.16657673
0002f0 3a da 46 be 48 ae 85 bf 60 f6 33 bf 92 dd cb 3f
       -0.19419184 -1.0443811 -0.70297813 1.5926993
000300 6f d8 40 bf 3c 0d d2 bc f3 8f 0f bf 87 b3 a7 3f
       -0.7533025 -0.025641076 -0.56079024 1.3101662
000310 88 5a 0f 3f d3 59 ae 3f 63 eb b8 bf 07 41 28 3f
       0.55997515 1.3621162 -1.4446834 0.65724224
000320 eb fd 93 3e 7c 6b 4e bf 45 12 b0 3f 1e f8 3f 3e
       0.28904662 -0.8063276 1.3755575 0.18746993
000330 d6 76 14 3e 48 4f b6 be f8 ed 42 c0 15 ba 54 3e
       0.14498457 -0.35607362 -3.0457745 0.2077411
000340 1d 87 87 3c df 11 77 bd 7b c2 ba 3e 63 46 b1 3e
       0.01654392 -0.060319778 0.36476502 0.34624013
000350 0c 42 04 3f f0 34 90 3e 27 b3 b2 3e aa 42 0f 3f
       0.5166328 0.28165388 0.34902307 0.55961096
000360 75 0f b3 3e 73 0d 93 3e a2 4b a4 3e d6 e1 8c 3e
       0.3497273 0.28721198 0.32088953 0.2751605
000370 f4 6e ca 3d e1 3c 8f 3e 3e cd 8f 3e a1 c2 41 be
       0.09884444 0.27976134 0.28086275 -0.18921901
000380 29 d7 53 3d 24 8b 42 3e f0 dd 80 3e 8f a4 4e 3e
       0.051718865 0.1899839 0.25169325 0.20179962
000390 ed cf ae 3e 31 d1 db 3d 20 c5 75 3e aa 23 04 3d
       0.3414301 0.107332595 0.24000978 0.032260574
0003a0 18 b2 ef 3e c0 3f 52 be 77 60 eb be 98 b5 46 bf
       0.46815562 -0.20532131 -0.45972034 -0.7762084
0003b0 21 78 1a bf f0 7e 13 bf 45 89 35 3f c0 fd d5 3d
       -0.6033955 -0.57615566 0.7091258 0.104487896
0003c0 90 13 f0 3f a8 f1 8c 3e d3 81 3f 40 73 58 05 3e
       1.875597 0.2752812 2.9922988 0.13022022
0003d0 5f 66 38 3d e1 0f fa be 45 72 a9 3f 9b 0a a5 3e
       0.045019504 -0.4884024 1.3237997 0.32234654
0003e0 e8 a0 2f 3f a8 11 56 bf db 5d b2 bf 64 8c 3f 40
       0.686049 -0.8362069 -1.3934892 2.9929438
0003f0 ee 73 ff 3e 16 78 39 be e9 1b 00 3e 00 ad e2 3e
       0.49893135 -0.18112215 0.12510647 0.44272614

fc1.bias f4 [100]
000000 66 73 c9 be c2 db 09 3f 95 88 7b bd 59 ce 6c 3e
       -0.39345855 0.5385095 -0.06140955 0.2312559
000010 b3 dc 5e 3e 1f af 19 be 7a 4e 81 3e c1 39 ff 3d
       0.21763878 -0.1500821 0.25255185 0.124621876
000020 ec 1b 87 bc 3d 95 84 3e ab 4e 1e be 4e 59 1a 3e
       -0.016492806 0.2589511 -0.15459697 0.1507313
000030 0f a2 f2 3d 3e 80 ad 3e 31 bd 0a be 81 d5 c8 3c
       0.118473165 0.33886904 -0.13548733 0.02451587
000040 26 db 49 3e a5 f0 2a 3d 3a 74 c5 be ef 78 29 3e
       0.19712505 0.041733403 -0.38565236 0.16550039
000050 97 4b 8d be d3 70 5a 3e 77 02 0a 3c 1f c8 fd 3d
       -0.27596733 0.21332102 0.008423439 0.12391686
000060 1f b5 c4 3d 24 31 5d 3e 93 09 8b 3e 9d c7 02 be
       0.096048586 0.21600777 0.27155742 -0.12771459
000070 00 0b 90 bb 22 bc bc 3e e4 81 51 be bd 64 43 bd
       -0.0043958426 0.36862284 -0.20459706 -0.047703493
000080 cd 47 85 be d9 51 b7 3d e3 61 94 3e 0b 69 d8 be
       -0.26031342 0.08951158 0.28980932 -0.4226764
000090 8e 4b a9 bd fb 7f 82 3d 4e c1 e4 3d 69 ee 8c be
       -0.08266364 0.063720666 0.111696824 -0.27525643
0000a0 61 93 82 3d 76 6a 8a 3e d5 6a 74 be e6 d0 d0 bd
       0.063757665 0.27034348 -0.23868878 -0.10196094
0000b0 ab 36 13 be 33 c4 b5 bd 83 57 af 3e a9 0a 2c 3e
       -0.14376323 -0.08875313 0.34246454 0.16800942
0000c0 a7 a0 ee 3d 3a 0d b9 bd 4f 9d ec 3d a4 3f 1d be
       0.11651736 -0.09035726 0.11553442 -0.15356308
0000d0 89 d0 9b be 66 00 50 3e b0 69 25 be 13 82 bc be
       -0.30432537 0.20312652 -0.16153598 -0.3681799
0000e0 bf 01 76 3e 6b 60 1a be 9d 09 70 3e 7e b8 87 3d
       0.24024104 -0.15075843 0.23441167 0.06626986
0000f0 30 ca de be c4 63 9d 3d a5 42 dc 3e 9c a1 aa 3d
       -0.43513632 0.076850444 0.43019596 0.08331606
000100 ca 18 c5 bd 30 70 e4 be 5c ed d0 3d 7f 37 21 3e
       -0.09623869 -0.44616842 0.10201523 0.15743826
000110 59 ec 0d be 85 26 d4 bd ef cd 3d 3e e7 2c a7 be
       -0.1385969 -0.103589095 0.18535589 -0.32651445
000120 14 13 de be 09 ae 75 3e 8e f3 00 bd e8 e8 17 3e
       -0.4337393 0.2399217 -0.03148227 0.1483494
000130 6d 8a 4f be fd bd ec 3d 81 63 ec 3d 44 9e fe be
       -0.20267649 0.11559675 0.11542416 -0.49730122
000140 e6 81 fa 3d 5f 3c db bd c2 b2 4a be 55 8b d7 be
       0.122318074 -0.10704874 -0.19794753 -0.4209849
000150 7f e1 0d bd 44 47 dd bd 92 6d 0e bc ff 74 06 bf
       -0.034638878 -0.108046085 -0.008693116 -0.5252227
000160 29 18 41 be fb a8 75 be a6 d8 2c be cf 12 cb 3d
       -0.18856873 -0.23990242 -0.1687952 0.09915697
000170 22 83 77 3e 4d ee e9 bd 5b d7 ea bd 2a 60 c9 3e
       0.24171117 -0.114224054 -0.11466857 0.3933118
000180 09 2a 96 3e 24 a4 91 3e 7b bd b7 bb cb 3f 3e 3e
       0.29328945 0.28445542 -0.0056073046 0.18579023

fc2.weight f4 [100, 100]
000000 bd e4 27 40 41 8b 9d 3f e9 08 01 be a7 8a 5b 3f
       2.623336 1.2308122 -0.12601055 0.8575844
000010 f2 e7 ab 3d 02 46 02 be 56 63 92 be c2 67 83 3e
       0.083938494 -0.12722018 -0.28591412 0.25665098
000020 7d 16 1f be 4b 56 bb be 20 14 85 bc be 0f 7a 3f
       -0.15535922 -0.36589274 -0.016244948 0.9768027
000030 7a 16 16 bf e1 39 91 3d a8 c0 bc 3e be 73 81 bf
       -0.58628047 0.07091118 0.36865735 -1.0113447
000040 cd 37 28 3e 75 4e 57 bf c4 9a c3 3f 25 e6 94 3d
       0.16427536 -0.8410409 1.5281606 0.07270459
000050 e3 3c 8b ba 0c ef 2c 3f 1c 89 a3 bf bb 38 72 3d
       -0.0010623004 0.67552257 -1.2776217 0.059136134
000060 fe 43 bd 3d a8 44 6f 3d 5a 68 93 3e 24 d6 e3 3f
       0.09241484 0.058415085 0.2879055 1.7799726
000070 68 4b 29 3e 06 cc cb 3e 08 46 25 3f 69 7c 5c be
       0.16532671 0.39804095 0.64559984 -0.21531834
000080 df 54 f3 3d 8c ef 28 be 7c 55 78 3c 4a 4a 60 bf
       0.11881422 -0.1649763 0.0151571 -0.87613356
000090 5c 0c ef bd 57 e9 b2 bc 22 e6 8f 3e 9a 18 73 3f
       -0.11672279 -0.02183978 0.28105265 0.94959414
0000a0 28 5c d9 3d 2f 9c eb bd 71 83 20 bf 2e 1e a6 3c
       0.106132805 -0.11504399 -0.62700564 0.020278063
0000b0 22 da 04 bf da 0a 00 c0 ff af ad 3d a1 50 fa bc
       -0.51895344 -2.0006623 0.08480834 -0.030556025
0000c0 48 91 05 bf 5d f7 9f bd d1 6d 01 40 be 23 90 bf
       -0.52174807 -0.07810853 2.0223277 -1.1260908
0000d0 3a 1c 41 be 19 10 1b be f5 40 9a 3d 32 e3 3a bf
       -0.18858424 -0.1514286 0.07531921 -0.7300292
0000e0 4a aa 1b 3e 69 b4 a5 3e 85 ab 00 c0 17 79 ab 3e
       0.15201679 0.32364205 -2.0104687 0.33490822
0000f0 ed 3a 49 3f 9c 14 7c bf df 67 48 3d d0 bf 0d 3f
       0.7860554 -0.9846895 0.048927184 0.5537081
000100 95 06 4e bf 56 f7 aa bd fc 81 8b 3f a1 80 33 bc
       -0.80478793 -0.08347957 1.0899043 -0.0109559605
000110 b5 3b f2 3d b7 96 d6 3f d6 63 96 3d c0 7d 0b bf
       0.118277945 1.6764745 0.07343261 -0.54488754
000120 b4 c6 a6 3c 98 8b 91 3d 18 a3 c9 3d cf c0 d4 be
       0.02035842 0.071067035 0.09845561 -0.4155335
000130 94 4e 4d 3f 27 e5 fd be 62 16 cb be cd c6 1e bf
       0.80198026 -0.49588892 -0.39665514 -0.62022096
000140 24 8c eb bf 47 67 bd bc 69 96 73 3e 15 96 55 3d
       -1.8402143 -0.023120536 0.23787846 0.052145083
000150 24 c0 4d 3f a6 c7 80 bc b2 68 64 be cd 01 bc bd
       0.8037131 -0.0157202 -0.22305563 -0.09180031
000160 0e b6 e7 3e bf 9f 3c 3d e5 42 48 3f 0b ba cb bf
       0.45256084 0.046050783 0.7822707 -1.5916151
000170 42 31 ff 3d 12 c2 da 3f 75 42 24 bf 18 01 c0 3d
       0.12460567 1.7090476 -0.64163905 0.093752086
000180 60 a1 a5 3f f3 6a 36 bf be 46 32 3f ba 89 a7 3f
       1.2939873 -0.7125694 0.69639194 1.3088906
000190 c7 ed 91 3f a0 d4 45 bf 64 d6 88 3e 5e 75 97 3e
       1.1400689 -0.77277565 0.26726067 0.29581732
0001a0 a0 28 90 be 84 0b 6b 3e a5 50 82 3e b8 15 5d be
       -0.28155994 0.22953612 0.25452152 -0.21590316
0001b0 44 7f a6 3e f6 05 9b bf b8 4c 84 be 0f 16 68 3f
       0.3251897 -1.2111194 -0.25839782 0.9065866
0001c0 01 f0 ad 3f 72 f2 a4 be c1 f7 43 bf bd 23 e4 3e
       1.3588868 -0.3221622 -0.7654992 0.44558516
0001d0 2f cf aa be 8f 69 73 3f f7 98 58 3e 41 ce c1 be
       -0.33361194 0.95082945 0.21152101 -0.37852672
0001e0 f3 fc 6e 3e 4d b3 12 3e 09 a1 de 3e 36 97 82 be
       0.2333868 0.1432621 0.43482235 -0.2550599
0001f0 87 c8 c1 be d7 6b bb be 1e 06 c5 3f 39 8a bd be
       -0.37848303 -0.36605713 1.5392492 -0.37019518
000200 ec 3a 5c be 70 03 5d be 1a 03 03 3e 58 89 9b bf
       -0.21506852 -0.21583343 0.12794152 -1.2151289
000210 76 2b ac be b8 38 ac 3e 48 c9 25 3e 43 ea 4a 3f
       -0.33626908 0.33637023 0.16190064 0.79263705
000220 da 37 b0 3e 87 28 a1 be 83 66 eb be f0 3f c5 bf
       0.3441761 -0.31476232 -0.45976648 -1.5410137
000230 11 1f 85 be 6e 5e eb 3f 18 24 8b 3f c2 17 ab 3e
       -0.26000264 1.8388193 1.087039 0.33416563
000240 a6 48 2a 3f 91 e8 e1 3e 99 27 bb be d1 3f b9 3e
       0.665171 0.44122747 -0.36553648 0.361815
000250 6b 49 c9 be cf aa 71 3e e2 33 84 3e 87 3b 91 be
       -0.39313826 0.23600315 0.25820833 -0.28365728
000260 b4 17 0a 3f 95 b9 cb 3f 87 c9 83 be ea b0 03 c0
       0.5394242 1.591601 -0.2573969 -2.057673
000270 71 f7 b8 be 05 ad ea be 6d 03 df bf 93 ff e3 3f
       -0.36126283 -0.45835128 -1.742292 1.781237
000280 78 22 98 bf 49 d8 40 3d 2d d6 c1 be a9 b6 14 3c
       -1.1885519 0.047081266 -0.37858716 0.009076753
000290 59 8b 76 bf b0 fe 84 3e 04 d3 c2 3f 5c 09 83 be
       -0.9630638 0.2597556 1.5220647 -0.25593078
0002a0 28 ce 8f be 7c 8f ac be bf 6b ac be 0a 71 88 3f
       -0.28086972 -0.3370322 -0.33675954 1.0659497
0002b0 23 64 5c 3e 83 79 cf be 61 59 a6 be f2 e3 69 be
       0.21522574 -0.40522394 -0.32490066 -0.2284086
0002c0 0c bf 91 3f 7e 20 19 3f de 05 06 bf de e0 69 3d
       1.1386428 0.59815204 -0.523527 0.057099216
0002d0 6d e6 78 3e 1e 58 9e 3f 37 20 9d 3f 48 27 a8 3f
       0.2430665 1.2370641 1.2275456 1.3136988
0002e0 71 1b e9 be 9b 71 21 bf 1e a3 60 3f c3 71 55 3e
       -0.4552875 -0.63063973 0.877489 0.20844178
0002f0 a2 9b a0 40 45 cf ed 3e 8e 7c 53 3f 15 69 29 3f
       5.018998 0.46447197 0.8261193 0.6617597
000300 e4 8b ac be df c1 2a be b5 e2 be bf f8 f6 b6 be
       -0.33700478 -0.16675518 -1.4912935 -0.35735297
000310 0a ee 72 3e 81 e4 d2 be f0 fe b3 bf 42 77 f7 be
       0.23723617 -0.4118996 -1.4062176 -0.48333174
000320 13 35 dc be b8 9d 86 3e 8e fc cd 3d 29 5d b0 be
       -0.43009242 0.26292205 0.100579366 -0.34446076
000330 46 c0 95 3d ad a9 ed 3d f0 c3 48 3e 9c 35 b7 3d
       0.07312064 0.11604629 0.19605994 0.08945772
000340 ba ed 08 bd bd 4a 13 3f 26 9e 6f bd 99 83 6e 40
       -0.03342984 0.57535917 -0.05850043 3.726782
000350 2a 82 16 3e 7b 4a 4c 3d 76 33 0c bf 34 25 cd be
       0.14698091 0.049875718 -0.54766023 -0.40067446
000360 da 3b b2 bd aa 51 25 40 71 50 cb bf d1 86 90 3d
       -0.08702822 2.5831094 -1.5883924 0.07056964
000370 7a c7 87 bd 7c 73 23 3e c5 6c 48 bf eb e9 21 bd
       -0.06629844 0.15962023 -0.7829097 -0.039529722
000380 53 7b ee bd a3 ba 90 3c d6 8e 7f 3f 87 be 39 be
       -0.11644616 0.01766712 0.99827325 -0.18139087
000390 05 bb d2 bd b1 e0 41 bf 32 b4 30 3c 88 2b b7 3f
       -0.102895774 -0.75733477 0.010785149 1.431016
0003a0 1c f8 90 bd b3 bc 38 3d b7 37 53 be ef 57 a6 bd
       -0.07078573 0.045101833 -0.20626722 -0.08122241
0003b0 a2 33 41 3b cc 45 70 bd 82 b7 ee 3e 99 a1 93 3e
       0.0029480238 -0.058660313 0.4662438 0.28834227
0003c0 c3 08 35 3d 81 7d e4 3e 49 41 dc 3d 76 41 a7 3d
       0.04419781 0.44627002 0.1075464 0.081667826
0003d0 9a d7 e6 be 90 19 30 be 79 7a ff bc a8 85 5e bc
       -0.45086366 -0.17197251 -0.03118633 -0.013581671
0003e0 28 9d 8a bf b5 a0 5d 3d 02 dd 02 40 22 2d 8c 3d
       -1.082921 0.05410834 2.0447392 0.06844546
0003f0 94 e9 04 bd 04 d0 c5 3f e0 b5 33 3d c1 ef cf 3f
       -0.03244932 1.5454106 0.04387462 1.6245042

fc2.bias f4 [100]
000000 9b a8 01 3e c7 df 8a be 7d f3 3d 3d 02 f3 7e 3d
       0.12661974 -0.27123854 0.046374787 0.06224347
000010 88 19 b6 bd 9a a5 8c bc 2b 65 5e 3e 8e a0 ad bc
       -0.088915884 -0.017168809 0.2171828 -0.021194723
000020 60 b9 6d 3d ef 4a c9 3d e3 8c bd 3d 6d c7 5d 3d
       0.058038116 0.098287456 0.09255388 0.054145265
000030 ab e4 5d bd 10 ae 47 3e be 33 25 3e e5 cb 8f 3d
       -0.054173153 0.19499993 0.1613302 0.07021312
000040 2c 15 96 3d 7d 87 29 3d 54 66 35 bd df a3 f0 3b
       0.07328257 0.041388977 -0.04428704 0.0073437537
000050 8e 62 27 3e 93 53 6b be a4 69 99 bd 91 aa 88 3d
       0.1634619 -0.229811 -0.074908525 0.06673158
000060 7c 56 03 bc 32 a9 d7 bd 78 5b 82 3e ad 43 03 3e
       -0.008016225 -0.10530318 0.2546041 0.12818785
000070 c1 42 27 bd 6a c4 aa bd 42 53 53 3e 61 fd 78 3e
       -0.040835146 -0.08338244 0.20637229 0.24315406
000080 93 cb 9d bd b2 e7 0c be 61 92 10 be 6d 09 1b be
       -0.07704844 -0.1376026 -0.14118339 -0.15140314
000090 c2 cf 57 3e 27 33 3f be 72 96 0a 3f 96 5c 97 3c
       0.21075347 -0.18671857 0.5413581 0.018476766
0000a0 c9 a7 4b 3e 2c 80 b6 be fa c8 a5 bd 5d dc 4a bd
       0.19888224 -0.35644662 -0.08094974 -0.04952656
0000b0 fb 35 b7 bc ee 85 91 be 20 67 09 be db 02 e4 3e
       -0.022364607 -0.28422493 -0.13418245 0.4453343
0000c0 56 84 94 3a 82 1f 03 3d 9c be 3b be 9d 79 3a 3e
       0.0011330943 0.03201247 -0.1833443 0.18210454
0000d0 82 f7 24 3e 4d 02 96 be f5 08 62 3c ca d8 80 be
       0.16110042 -0.2929863 0.013796081 -0.25165397
0000e0 3d f9 05 bd 66 08 06 3e 16 b6 1a be be 42 f1 3d
       -0.032708395 0.13089141 -0.15108523 0.11780308
0000f0 b1 d2 35 3e 67 aa c9 3e ee 21 04 be e2 84 81 3d
       0.17756154 0.3938782 -0.12903568 0.063241735
000100 87 96 a2 bb ab 62 36 bc 34 98 ae bd d9 ff b7 3d
       -0.004961792 -0.011131923 -0.08525124 0.08984346
000110 c9 67 ac bd fe ca 68 3d fb fd ec ba c3 9d e1 bc
       -0.08418233 0.056834213 -0.0018081063 -0.027541047
000120 46 af 63 3e 19 e4 31 3e a5 79 cb 3d f4 33 ce bd
       0.2223483 0.17372169 0.09935311 -0.10068503
000130 a1 b8 01 3d ec f2 07 be 23 21 68 bc af bb 17 3e
       0.031670216 -0.13276261 -0.014168057 0.1481769
000140 35 3f 90 3d bd 13 3f be 83 6f 91 bd 35 ba 40 bb
       0.07043306 -0.18659873 -0.07101347 -0.0029407863
000150 70 05 c5 bd 77 b2 56 3e 12 da e8 bd 4f bc a0 be
       -0.09620178 0.20966516 -0.113697186 -0.31393668
000160 e9 5b d2 be 87 ee 7f 3e de 63 61 3e 03 ab 1c 3e
       -0.41085747 0.24993335 0.22010753 0.15299611
000170 9b ea bb be f5 bb d0 3d ce 3e 00 3e 07 dc 10 be
       -0.36702427 0.101921 0.12523958 -0.14146434
000180 ed 66 18 be f6 38 52 3e 95 b9 df bd ed 5b 9b 3e
       -0.14883013 0.20529541 -0.10924069 0.3034357

fc3.weight f4 [8, 100]
000000 ad bc a8 be 87 01 c7 bd 10 6f 4d 3e 9e ee b5 3e
       -0.32956448 -0.09717088 0.20061898 0.35533613
000010 03 7c 0a 3e 10 42 9d 3d a9 d1 34 be 5c 70 1b be
       0.13523869 0.07678616 -0.17658104 -0.1517958
000020 70 6f a9 be 1b 3a 0b be f0 06 80 be 8f 78 da bd
       -0.33092833 -0.13596384 -0.25005293 -0.10667526
000030 d4 d4 82 be 77 5d 8f bd 42 b9 3d be 7c 8a 1b 3e
       -0.25553 -0.07000249 -0.18527701 0.15189546
000040 6f 53 72 be 38 39 41 3e 2c 68 1d 3e 8e 36 f1 3d
       -0.2366464 0.18869483 0.1537177 0.117779836
000050 97 61 fe bd 4d ce 00 be 18 b1 ff 3d b3 1e 3c be
       -0.124209575 -0.12578698 0.1248495 -0.18371086
000060 e3 b3 ee 3d 1b d9 9c be 34 5c 19 3e 5b 4f 57 be
       0.116554044 -0.30634388 0.14976579 -0.21026365
000070 eb 7b 07 3e f8 1f 27 be da 4c 5d 3e 41 50 56 3e
       0.13230865 -0.16320789 0.21611348 0.20929052
000080 97 bf aa bd 04 6f 64 3e 44 32 74 be bc 65 3b be
       -0.08337324 0.22307974 -0.238473 -0.18300527
000090 78 22 98 be 42 e2 1a 3e 5c 98 9b 3e 08 d9 b4 3e
       -0.29713798 0.15125373 0.30389678 0.35321832
0000a0 06 b4 dd be 01 72 d9 3e b5 e3 1b 3e 5c 61 8a be
       -0.4330141 0.4246979 0.15223582 -0.27027404
0000b0 bb 74 04 be cb 26 c7 3d 60 9b 5e be 75 3e 01 be
       -0.12935154 0.09724196 -0.21738958 -0.12621482
0000c0 ef 26 ac be 07 80 f8 3d ca 2a 0d 3d a8 af 29 3e
       -0.33623454 0.12133794 0.034464635 0.16570914
0000d0 1b a5 34 be 0e 96 46 bb b9 ba fa 3d 9e c8 0e be
       -0.17641108 -0.0030301842 0.12242646 -0.13943717
0000e0 0a 3f 19 3c 32 ad 28 be 3a ae 95 3d b2 77 df 3d
       0.009353409 -0.16472319 0.07308622 0.10911502
0000f0 65 ca 1f 3d 80 c5 07 3e e0 e0 18 be 35 a9 37 3e
       0.039011378 0.13258934 -0.14929533 0.17935641
000100 29 7c 05 3e 76 62 94 3d c1 83 8f be 3f 14 5d 3c
       0.13035645 0.072453424 -0.28030208 0.013493597
000110 3d f7 5f be 64 b0 5a bd 15 0a b3 3c 1b e5 8b be
       -0.21871658 -0.053390875 0.021855393 -0.2732323
000120 d1 bc 40 3d cf 51 47 be 5e 09 7c 3e f4 35 0c 3e
       0.04705507 -0.19464801 0.24612948 0.13692456
000130 26 07 ad be f1 65 29 be 46 84 86 3d 9b 8b 0f 3c
       -0.33794516 -0.16542794 0.06568198 0.008761312
000140 97 bd f4 be 8b bf 40 be 3d 58 34 be 17 e7 2c be
       -0.47800896 -0.18823068 -0.17611785 -0.16885029
000150 3e f6 76 be 14 d7 2c 3e f7 90 a0 3e b5 04 2c 3e
       -0.24117371 0.16878921 0.313606 0.1679867
000160 5f da 08 be e2 14 c0 3e c6 72 25 bd c3 d8 84 3e
       -0.13364552 0.37515932 -0.04039266 0.25946626
000170 f9 26 96 3e 7f fe 08 be e8 ff 18 be 89 08 32 3e
       0.2932661 -0.13378333 -0.1494137 0.17386068
000180 d7 75 1e be be 32 d0 bd cc 0d 4f 3e 15 77 20 3e
       -0.1547464 -0.10165928 0.20220107 0.15670426
000190 17 d9 40 3e 2a 61 bb 3d 1d 6e 90 bd d5 a3 8c be
       0.18832813 0.09149392 -0.070522524 -0.27468744
0001a0 06 9e 21 bd fe 9f 08 bd b5 8c 53 bd 77 74 8d 3d
       -0.039457344 -0.033355705 -0.05164786 0.069069795
0001b0 9b d7 52 bc 64 32 bf bd 74 66 a0 3c 51 17 92 3d
       -0.012868787 -0.09335783 0.019580103 0.071333535
0001c0 73 c3 33 3e df 99 ba bd 72 94 dd 3d c0 22 49 3d
       0.17555027 -0.0911138 0.10819329 0.049105406
0001d0 51 e4 5a 3e 08 59 07 bd b6 cf 0a bd 0a d3 95 bd
       0.21376158 -0.03304389 -0.033889495 -0.07315643
0001e0 59 64 fa 3d 2e ef 0f be 78 39 c5 bd 69 1d df 3d
       0.12226171 -0.14056084 -0.09630102 0.108942814
0001f0 5f 90 e7 bd d3 8f 95 bc e9 e5 7b be d7 1b 63 bc
       -0.113068335 -0.018257057 -0.24599423 -0.013861618
000200 5a 56 01 be 46 e2 97 3d 87 bb 46 be b9 db 94 bd
       -0.12630597 0.07416205 -0.19407474 -0.07268471
000210 aa 6b 2d bd e7 3f 18 be dd f1 8b bd 60 ac ed bb
       -0.042339005 -0.14868127 -0.06833241 -0.0072532147
000220 ff 77 f6 bb 77 a8 61 3d ac 21 a7 be b6 6b e1 3c
       -0.007521629 0.0550923 -0.32642877 0.02751718
000230 a9 2d de 3c cb 08 43 bf 1f f5 a3 bd 9f 25 00 bc
       0.027121382 -0.7618529 -0.080057375 -0.00782147
000240 6a 96 d2 3d 87 15 21 be 93 41 08 3e cc 55 0d 3e
       0.102825955 -0.15730868 0.13306265 0.1380226
000250 10 fc c4 bc 20 5f 27 bd 65 ca 1b be 77 f5 8e be
       -0.024045974 -0.040862203 -0.15213926 -0.2792165
000260 d3 99 b7 3d cc f9 e3 bd 0d c5 2d bd e9 72 73 3d
       0.089648865 -0.11131629 -0.04242425 0.05943576
000270 51 7d b2 3d 2c 9a 8a bc 5d bc 20 be ba b9 5d bc
       0.087153085 -0.016919218 -0.15696855 -0.01353305
000280 03 7b 08 3d d5 09 b8 3d 9b e3 09 3e ff 41 10 be
       0.033320438 0.0898625 0.13465731 -0.14087676
000290 eb c9 1c 3c 66 94 6b bc 0f bc 4f 3e 66 b8 08 3e
       0.009569625 -0.014378643 0.20286582 0.13351592
0002a0 05 bb 99 bb 42 d4 a2 3d e6 a6 e1 bc 2b 67 e5 3c
       -0.004691484 0.07950641 -0.027545404 0.028003296
0002b0 6e 6f 7e be 8f 1b 8d 3d 7f 5a ef bd ee e7 21 bd
       -0.24847195 0.06890022 -0.11687183 -0.039527826
0002c0 41 ca 01 3d d8 0a 2c 3d 7c 1d 3c be 67 a1 20 3d
       0.031687025 0.04200253 -0.18370622 0.039216425
0002d0 a7 9e 36 bd e1 04 9b bc 7d 64 25 3e 8d 6a 06 3e
       -0.044584896 -0.018923225 0.16151614 0.13126583
0002e0 30 f8 ac bb 5f bb 25 bd 28 ed 3c 3d 19 e6 5b bd
       -0.0052786097 -0.040461894 0.046124607 -0.053686235
0002f0 34 68 c1 be 6d 4a 1b bd 3a 35 cf bd 20 9d 8a be
       -0.37774813 -0.037912775 -0.10117574 -0.27073002
000300 43 26 41 be 11 a7 c3 3d d5 1a e7 3d 6c 32 34 be
       -0.18862252 0.0955335 0.11284415 -0.1759736
000310 92 30 87 bd 04 86 d4 3d 38 a8 2c 3c 4b 02 8f bd
       -0.06601061 0.10377124 0.010538153 -0.06982859
000320 d5 de 3b 3d e1 5b 02 be d8 05 73 bc e6 e5 bc 3d
       0.045866806 -0.12730362 -0.014832936 0.09223537
000330 b0 a3 b7 3d 2c 7f 15 3d 9d a7 0b 3e 8a 72 ac 3d
       0.08966768 0.036498234 0.13638158 0.08420284
000340 4b 25 f8 3d db d1 d9 3d f9 03 c5 3d c2 8b 8c be
       0.12116488 0.1063573 0.09619898 -0.27450377
000350 d4 9a d8 3d e1 c7 c0 3d dc 0a 96 bd 1e f2 82 bc
       0.10576406 0.09413124 -0.0732629 -0.015984591
000360 67 85 89 3d 48 33 af bd 14 c4 05 be 22 49 0e be
       0.067148976 -0.08554703 -0.13063079 -0.13895085
000370 f9 61 ef 3b fe 81 97 bd b9 69 e0 3c ca b3 d7 3c
       0.0073053804 -0.07397841 0.027394162 0.026330847
000380 2d 8c 20 bd 0c d7 af 3d b4 4b 23 bd d6 38 8f bd
       -0.039196182 0.08585939 -0.039867118 -0.069932625
000390 a3 ef a4 3c b7 7d 8f 3d 45 b6 8b 3e 63 ce d5 bd
       0.020133799 0.070064 0.27287498 -0.10439756
0003a0 f9 5f f8 3d 7b f2 08 bd 8e 14 3d 3e 2d a0 9d 3d
       0.1212768 -0.033434372 0.18464872 0.07696567
0003b0 ad 15 d0 3d 36 ba 4f 3d ba 37 62 3e ee da 6b be
       0.10160384 0.050714694 0.2209157 -0.23032734
0003c0 93 5d 21 3e 65 8d 87 3f 4a 7e cf bc ad da 57 3e
       0.15758352 1.0590025 -0.025328774 0.21079512
0003d0 9f af 49 3d ee e7 16 bd e3 4d ce 3d a4 41 7f bc
       0.04923975 -0.03684228 0.100734495 -0.015579615
0003e0 cf 34 32 3e b5 be ad bd b2 d4 d8 3c 31 bb 28 3e
       0.17402957 -0.0848364 0.026468609 0.16477658
0003f0 44 82 09 3e 69 59 c9 3c 2c 8d 0c 3d d1 b4 dd 3c
       0.13428599 0.024578767 0.03431432 0.027063759

fc3.bias f4 [8]
000000 c9 f4 82 bb a2 50 b8 3c 68 8b 0a bf 41 a8 b6 3d
       -0.003996466 0.022499386 -0.5411897 0.08918811
000010 23 b9 30 be 89 eb 53 3d dd 59 5a be f6 8a 43 3e
       -0.17258124 0.051738296 -0.21323343 0.19095978
