save/updated_classifier/classifier_portraits.pt (torch, 77549 bytes, 10 tensors)

0.weight f4 [128, 8]
-0.22105967 -0.07300943 -0.003483752 -1.13131936e-13 -0.11302585 4.5274006e-21 -0.19854952 0.035009135
-0.08650233 -1.8280182e-27 -0.022966504 -0.19473284 0.054151773 -0.23027857 0.00044656455 -0.002749369
0.059392013 -0.1220914 0.0155925155 -0.055320177 0.11199914 -0.07502038 0.048544027 -0.13822997
-0.113260955 -0.0049793697 0.1299477 -0.12965028 3.2589505e-06 1.8223557e-06 0.1390408 -0.05615352
-0.06141102 -1.6111884e-27 1.0807186e-23 -0.11815085 0.13238701 -0.13891904 -0.12899594 -0.10111738
0.040811595 0.22210033 -0.21052688 0.2304792 -0.0623954 0.23906298 -0.01753481 -0.009587226
-0.14512344 -0.06937521 0.16824782 0.10951494 -0.09838731 0.30220085 0.27349085 -0.32711816
0.26547816 -0.32496008 0.26415783 -0.15676574 0.09448302 -0.19254765 0.015355897 0.2071933
0.15732251 -0.25648773 0.2112274 0.22735772 -0.15435816 0.0089497855 -0.17108457 0.031734522
-0.03011779 0.0043203197 -0.04216868 -0.031637076 -0.059886295 -0.109597266 0.05426632 0.028305
-0.36812383 0.25566417 -0.018140256 0.30645105 -0.25085023 0.19711322 -0.025914405 -0.15789478
-0.01988112 -0.15388083 -0.07185217 9.595155e-08 0.016904207 0.023841841 0.057038732 -9.682765e-30
-0.18529893 -0.115606435 -0.008323145 0.18019192 -0.1404498 -0.17918515 0.22140804 0.015502311
0.110896535 0.31365842 -0.40523884 0.043473788 0.1415213 -0.36792153 -0.049099404 -0.008457345
0.14182743 0.2296769 -0.16769104 -0.33675012 0.0602831 0.14492008 -0.11333794 0.33061692
-0.19570386 0.0001058294 -8.303587e-09 -0.16309878 -0.21795729 -0.03175034 0.22162066 0.16805474
-0.18331845 -0.2020494 -0.013813418 0.06276061 0.108561 -0.14236037 -0.14367488 0.19823985
-0.07174977 0.20140661 -0.17016369 0.30802137 -0.14688805 0.14901793 -0.08378405 -0.0038924823
0.02308235 0.055286612 0.16364878 -0.2515338 -0.2769515 0.025140654 -0.04301852 0.24271217
-0.037991166 0.05887752 -0.20888273 -0.10578014 0.19519049 -0.027082395 0.17238794 0.08063738
0.0251902 3.3224846e-30 0.011043483 -0.13593031 -0.18665172 0.11828212 -1.08860115e-23 -0.17419295
-0.26116055 0.13724913 -0.24665682 -0.1774919 0.3148562 0.16463095 -0.030587854 0.19565715
-0.16453217 2.9723926e-25 -0.0042889263 -1.0229264e-26 0.05977513 -1.268676e-27 -7.663983e-31 -0.19844547
0.19169024 -0.1643547 0.17945746 -0.11211198 -0.12171226 1.6452776e-07 -0.22085464 -0.0011125309
5.443336e-07 0.09587878 0.11290698 -0.00955022 -0.003900798 -0.23064609 0.09154709 -0.22676425
0.27940857 -0.19189711 0.2537062 -0.2747455 0.2521516 0.10576284 -0.29861215 0.045032755
0.21237253 0.025011225 -0.35925668 0.26057628 -0.21377608 0.2975918 -0.044853423 0.0023853835
0.012707426 -0.12792328 0.03706304 -0.048236262 1.1377934e-11 -0.077910334 -0.00068142574 0.010560502
-0.051650073 -0.30019248 0.083037615 0.24609882 -0.2084135 0.29027608 -0.09924894 -0.04914446
0.046218432 -0.06487927 -2.0620803e-27 -0.013469879 -0.21208249 0.16241248 0.029625844 -0.0011472985
0.07398958 -0.08216624 -0.32684585 0.17708182 -0.11376693 0.116191395 -0.3792055 0.29434434
0.33921847 -0.13629518 0.24251406 -0.010983167 0.2229595 -0.1677733 0.022542048 0.30800042
00000000: 775d 62be f885 95bd a94f 64bb 1fc0 fea9
00000010: 197a e7bd 550a ab1d 9150 4bbe bd65 0f3d
00000020: 2228 b1bd 9dd4 1093 4024 bcbc 0c68 47be
00000030: 40ce 5d3d 25ce 6bbe e120 ea39 c22e 34bb
00000040: 0a45 733d 0e0b fabd c077 7f3c 6997 62bd
00000050: ce5f e53d 49a4 99bd 1ad6 463d 288c 0dbe
00000060: 5cf5 e7bd fb29 a3bb 0311 053e 0bc3 04be
00000070: 58b4 5a36 aa97 f435 b660 0e3e 3c01 66bd
00000080: 1f8a 7bbd 914d ff92 980a 5119 13f9 f1bd
00000090: 7690 073e cb40 0ebe 8317 04be a116 cfbd
000000a0: 0f2a 273d 456e 633e 5c94 57be bd02 6c3e
000000b0: 5292 7fbd edcc 743e 29a5 8fbc be13 1dbc
000000c0: 3d9b 14be 9714 8ebd 2849 2c3e 5e49 e03d
000000d0: 497f c9bd 12ba 9a3e fe06 8c3e 087c a7be
000000e0: c1ec 873e 2b61 a6be b23f 873e 3387 20be
000000f0: 5080 c13d 362b 45be 4d97 7b3c 7b2a 543e
00000100: 2719 213e 5c52 83be ff4b 583e 76d0 683e
00000110: 1110 1ebe 1fa2 123c cb30 2fbe 0ffc 013d
00000120: 95b9 f6bc 7891 8d3b 11b9 2cbd e195 01bd
00000130: 554b 75bd 8874 e0bd 5c46 5e3d e3df e73c
00000140: ba7a bcbe 6ae6 823e e09a 94bc 27e7 9c3e
00000150: 716f 80be 0cd8 493e 724a d4bc 2baf 21be
00000160: bbdd a2bc f092 1dbe 3b27 93bd ec0d ce33
00000170: b17a 8a3c f74f c33c 72a1 693d ca63 448f
00000180: 01bf 3dbe 11c3 ecbd cd5d 08bc 3b84 383e
00000190: 13d2 0fbe 507c 37be cab8 623e 68fd 7d3c
000001a0: b91d e33d d697 a03e 777b cfbe 9211 323d
000001b0: f6ea 103e 3660 bcbe 751c 49bd ad90 0abc
000001c0: 363b 113e 6c30 6b3e 33b7 2bbe 836a acbe
000001d0: 69eb 763d ee65 143e b91d e8bd 9f46 a93e
000001e0: 9866 48be baf0 dd38 90a7 0eb2 5e03 27be
000001f0: 3230 5fbe a50c 02bd 87f0 623e 8b16 2c3e
00000200: d5b7 3bbe 0ae6 4ebe ad51 62bc a288 803d
00000210: 3b55 de3d ebc6 11be 821f 13be 63ff 4a3e
00000220: 8bf1 92bd 893d 4e3e 643f 2ebe fab4 9d3e
00000230: d269 16be 2898 183e f996 abbd 0419 7fbb
00000240: 3217 bd3c 3774 623d 8c93 273e 0ac9 80be
00000250: 96cc 8dbe c6f3 cd3c 3034 30bd 8a89 783e
00000260: a09c 1bbd 8e29 713d 5be5 55be 42a3 d8bd
00000270: 04e0 473e e6db ddbc 7786 303e 3625 a53d
00000280: ae5b ce3c a7c6 860e baef 343c 5131 0bbe
00000290: a121 3fbe e53d f23d eb90 5299 a35f 32be
000002a0: d6b6 85be 098b 0c3e 9b93 7cbe 70c0 35be
000002b0: d534 a13e 0495 283e 6193 fabc 595a 483e
000002c0: 1f7b 28be 71fb b716 1f8a 8cbb 889c 4a94
000002d0: c4d6 743d 9d07 c992 e1b5 788d 4a35 4bbe
000002e0: 724a 443e 994c 28be b2c3 373e f79a e5bd
000002f0: 4744 f9bd 0ca9 3034 b827 62be 58d2 91ba
00000300: 521e 1235 185c c43d c63b e73d 8778 1cbc
00000310: 88a4 7fbb 7d2e 6cbe 0a7d bb3d e334 68be
00000320: a40e 8f3e ad80 44be c7e5 813e 71ab 8cbe
00000330: 041a 813e 309a d83d b1e3 98be 4474 383d
00000340: 2f78 593e 57e4 cc3c 7ef0 b7be 416a 853e
00000350: 1ee8 5abe f45d 983e 39b8 37bd 1854 1c3b
00000360: cf32 503c 52fe 02be 6acf 173d 6393 45bd
00000370: a929 482d 748f 9fbd b5a1 32ba f505 2d3c
00000380: 078f 53bd d4b2 99be a00f aa3d 5401 7c3e
00000390: 596a 55be 119f 943e 0743 cbbd b44b 49bd
000003a0: 8a4f 3d3d 6cdf 84bd f55f 2393 c4b0 5cbc
000003b0: 272c 59be 754f 263e e6b1 f23c f360 96ba
000003c0: d987 973d c646 a8bd 5758 a7be f054 353e
000003d0: a3fe e8bd c1f5 ed3d 3927 c2be 4db4 963e
000003e0: 0bae ad3e f790 0bbe 9b55 783e bef2 33bc
000003f0: 7f4f 643e c4cc 2bbe 1aaa b83c 3bb2 9d3e

0.bias f4 [128]
0.025376441 0.18777907 0.03134588 -0.025138993 -0.18313652 -0.35006773 -0.2087095 -0.08008772
-0.22950616 0.08442818 0.11444591 0.0022744716 -0.09438325 0.29159808 -0.25675902 0.15999696
-0.005341014 0.28013438 0.08132007 -0.2874243 0.13892807 -0.19563551 -0.2091233 0.016469888
-0.12040994 -0.056753356 0.28071314 9.629266e-21 -0.13198063 -0.22058925 0.19068931 0.2162596
-0.13494018 0.009271088 -0.11526218 -0.09727182 0.0071752053 0.16221675 -0.024420034 -0.13282765
-0.27674973 -0.02449425 0.19748735 0.3045981 0.17733994 1.7279795e-22 0.13104537 -0.008407316
0.08310312 0.048368234 -0.12463447 -0.0260024 -0.34443423 0.10214756 0.23134859 -0.033375885
0.22884783 0.036479987 0.19623742 0.15429346 -0.00031868124 3.288166e-07 0.06421911 0.10620205
0.063135594 0.2649855 0.32803056 -0.10557637 -0.08622105 0.1372129 -0.21770108 -0.20321877
0.15575731 0.27213243 -1.1897235e-05 0.23290975 -0.03581777 -6.869311e-21 -0.07907828 0.23360905
0.21061705 0.0091436235 0.2743702 0.09210125 0.33881164 0.12905172 0.22885293 0.1378813
0.04233703 -0.115377024 0.16071844 -0.1686464 -0.018060973 0.24249484 0.009131924 0.31387317
-0.17407128 -4.13833e-07 0.17794496 -0.085931286 0.09114595 -0.0011951973 -0.055649158 0.19177459
0.050661407 -0.022034973 -0.21482259 0.16218004 0.22938357 0.14100754 -0.19036888 -0.11102007
0.06206294 0.20021383 -0.19115783 0.0028772352 -0.03624842 9.653644e-09 0.004266959 0.31512126
0.13092814 0.061889846 -0.1596686 -0.24352817 -0.32709694 0.13769467 -0.03988959 0.2323297
00000000: 41e2 cf3c 2849 403e 8a64 003d 4af0 cdbc
00000010: 2488 3bbe 143c b3be f1b7 55be 0805 a4bd
00000020: aa03 6bbe aee8 ac3d 9e62 ea3d 4d0f 153b
00000030: 014c c1bd 584c 953e eb75 83be 3ed6 233e
00000040: ac03 afbb c66d 8f3e 238b a63d 4729 93be
00000050: 2943 0e3e ad54 48be 6b24 56be dceb 863c
00000060: 7d99 f6bd 3576 68bd a2b9 8f3e 46e4 351e
00000070: ee25 07be 26e2 61be 0f44 433e 2873 5d3e
00000080: c22d 0abe c3e5 173c 940e ecbd 7336 c7bd
00000090: fc1d eb3b 261c 263e 860c c8bc f903 08be
000000a0: 24b2 8dbe 2aa8 c8bc 203a 4a3e 48f4 9b3e
000000b0: 9a98 353e 60e6 501b c230 063e d7be 09bc
000000c0: f831 aa3d c51d 463d 5b40 ffbd fc02 d5bc
000000d0: af59 b0be bd32 d13d a5e6 6c3e 27b5 08bd
000000e0: 1657 6a3e 0a6c 153d 76f2 483e 1bff 1d3e
000000f0: ac14 a7b9 3688 b034 4f85 833d 7680 d93d
00000100: 3c4d 813d 2eac 873e 9ff3 a73e 6d38 d8bd
00000110: a994 b0bd 8a81 0c3e 08ed 5ebe 9518 50be
00000120: d87e 1f3e f154 8b3e 3c9a 47b7 e57f 6e3e
00000130: a7b5 12bd f3c1 019e cbf3 a1bd 3637 6f3e
00000140: ffab 573e 23cf 153c 407a 8c3e 959f bc3d
00000150: b878 ad3e 2226 043e 6c58 6a3e c130 0d3e
00000160: 9869 2d3d ca4a ecbd 6093 243e a4b1 2cbe
00000170: 9bf4 93bc 9150 783e 119e 153c fcb3 a03e
00000180: be3f 32be c62c deb4 3437 363e befc afbd
00000190: baaa ba3d 2ba8 9cba 5ff0 63bd 8f60 443e
000001a0: 5682 4f3d b082 b4bc 74fa 5bbe 8612 263e
000001b0: 87e3 6a3e 4864 103e 0ff0 42be 7e5e e3bd
000001c0: b635 7e3d db04 4d3e e1be 43be ff8f 3c3b
000001d0: 3979 14bd 2dd9 2532 d9d1 8b3b 9357 a13e
000001e0: 0712 063e 3580 7d3d 2a80 23be 735f 79be
000001f0: 4079 a7be d5ff 0c3e 4463 23bd d6e7 6d3e

3.weight f4 [128]
0.8765909 0.8765909 0.87659043 0.8765903 0.8765909 0.97436833 1.0341765 1.0840895
1.0146363 0.8765909 1.0227226 0.8765909 0.8765909 1.0472959 0.9877565 0.8765909
0.8765909 0.9788853 0.99816525 1.0189649 0.8765909 0.9988973 0.8765909 0.8765909
0.8765909 0.9734549 0.9743519 0.8765909 0.9846515 0.8765909 1.056203 0.9654798
0.8765909 0.8765909 0.8765909 0.8765909 1.0282823 0.9712972 0.8765909 0.8765909
1.0213284 0.9848702 0.99977994 1.0127604 0.9682292 0.8765909 0.9908497 1.030209
1.0287881 1.0156976 1.0001765 1.051408 1.029959 0.9755685 1.0456139 0.90517974
0.8765909 0.8765905 0.96915925 1.0412886 0.8765909 0.87659067 0.9986692 1.0438694
1.0657516 0.96624 0.9642194 0.9770717 1.0160522 0.9140108 1.0858257 0.8765909
0.8765909 1.0843723 0.8765909 0.96903574 0.87658954 0.8765909 1.0466671 1.0242937
0.8765909 0.9745185 0.969203 0.8765909 1.0102051 0.8765909 0.97669524 0.91079515
0.87658775 0.8765909 1.0719585 1.0160929 0.8765909 0.9902545 0.98648417 1.0864061
1.0235531 0.8765886 1.0243465 0.9747769 0.8765909 0.8765909 0.974687 0.9692626
0.8765909 0.98804355 0.97642946 0.93281025 0.8765909 0.8765909 0.960022 1.0361595
1.095683 0.8765909 0.8765909 0.97060853 0.874741 0.8765909 0.96826696 1.0451751
0.94920397 0.8765908 0.8765909 0.97192186 1.0039731 0.9686842 0.8765909 0.8765909
00000000: 4368 603f 4368 603f 3b68 603f 3968 603f
00000010: 4368 603f 3470 793f e55f 843f 72c3 8a3f
00000020: 9adf 813f 4368 603f 93e8 823f 4368 603f
00000030: 4368 603f cb0d 863f 9cdd 7c3f 4368 603f
00000040: 4368 603f 3a98 7a3f c287 7f3f 716d 823f
00000050: 4368 603f bcb7 7f3f 4368 603f 4368 603f
00000060: 4368 603f 5734 793f 206f 793f 4368 603f
00000070: 1f12 7c3f 4368 603f a931 873f af29 773f
00000080: 4368 603f 4368 603f 4368 603f 4368 603f
00000090: c19e 833f efa6 783f 4368 603f 4368 603f
000000a0: e4ba 823f 7420 7c3f 94f1 7f3f 22a2 813f
000000b0: dedd 773f 4368 603f 53a8 7d3f e3dd 833f
000000c0: 54af 833f 6102 823f c905 803f 8a94 863f
000000d0: b2d5 833f dbbe 793f add6 853f dcb9 673f
000000e0: 4368 603f 3c68 603f d21a 783f f248 853f
000000f0: 4368 603f 3f68 603f c9a8 7f3f 839d 853f
00000100: 8c6a 883f 815b 773f 15d7 763f 5f21 7a3f
00000110: 000e 823f 9dfc 693f 56fc 8a3f 4368 603f
00000120: 4368 603f b6cc 8a3f 4368 603f ba12 783f
00000130: 2c68 603f 4368 603f 30f9 853f 0e1c 833f
00000140: 4368 603f 0b7a 793f b01d 783f 4368 603f
00000150: 674e 813f 4368 603f b308 7a3f df29 693f
00000160: 0e68 603f 4368 603f f035 893f 550f 823f
00000170: 4368 603f 5281 7d3f 3a8a 7c3f 5b0f 8b3f
00000180: ca03 833f 1c68 603f c91d 833f fb8a 793f
00000190: 4368 603f 4368 603f 1685 793f 9821 783f
000001a0: 4368 603f 6cf0 7c3f 48f7 793f a7cc 6e3f
000001b0: 4368 603f 4368 603f 00c4 753f e0a0 843f
000001c0: 573f 8c3f 4368 603f 4368 603f cd79 783f
000001d0: 07ef 5f3f 4368 603f 58e0 773f 4cc8 853f
000001e0: 08ff 723f 4168 603f 4368 603f dfcf 783f
000001f0: 3182 803f b0fb 773f 4368 603f 4368 603f

3.bias f4 [128]
0.03461488 0.020574793 -0.031343054 -0.037548907 0.03921867 0.005881281 -0.018240847 -0.043063194
-0.020673696 -0.016717302 0.015088536 -0.02838113 -0.026902493 0.039297197 -0.01648325 0.0069364933
-0.017753767 0.008444251 -0.0128937755 0.014862547 0.021003792 0.023869999 0.015491113 -0.031996306
-0.041940603 0.008068207 0.032696728 -0.025146268 -0.01068168 0.02695651 0.021348298 0.015720814
0.034148548 -0.022075424 0.039920133 0.020269794 0.029619412 -0.009636359 -0.019115895 -0.03667632
0.03353524 -0.020824388 0.02482147 0.013975498 -0.006444735 -0.01750822 -0.02552996 -0.013279438
0.0009334579 -0.0043741865 0.015718598 0.0015035105 0.012662049 -0.030168844 -0.0024904693 0.027944941
0.028489407 -0.025981415 0.013646484 -0.020865967 0.030891296 -0.0161696 -0.018624282 -0.02443727
-0.030348498 -0.00022686007 -0.035438273 0.015698295 0.02258161 -0.026171079 0.028780717 -0.008267884
-0.0019623013 0.012438668 0.013333467 -0.030932639 0.03590885 0.009308505 -0.030034048 -0.024848068
-0.022131022 -0.0012046385 0.030856248 0.03397629 0.015082251 0.024588613 0.0036741854 0.01372193
0.04344538 0.038548976 -0.035881504 0.009996136 0.010277593 0.028788494 0.0018152903 0.019304376
-0.035697125 0.04721755 0.024826216 0.02410597 -0.028450312 -0.02176067 0.019350871 0.0045457194
-0.011391728 0.044409107 -0.03375437 -0.03383947 -0.030208565 0.031560346 -0.0015619997 -0.026469324
0.033725068 0.030697031 0.012368681 0.030227868 0.0376713 0.018686127 -0.02012759 -0.017292066
-0.021406192 0.029464679 -0.022461507 3.6076977e-05 -0.0056178123 -0.01773668 -0.033255078 -0.0029597734
00000000: 55c8 0d3d 788c a83c 9361 00bd e2cc 19bd
00000010: c2a3 203d c3b7 c03b d46d 95bc 0863 30bd
00000020: e25b a9bc b9f2 88bc e835 773c 8b7f e8bc
00000030: 9e62 dcbc 19f6 203d e107 87bc 864b e33b
00000040: 5970 91bc c159 0a3c 6a40 53bc 0a82 733c
00000050: 2510 ac3c 048b c33c 70ce 7d3c 8f0e 03bd
00000060: e9c9 2bbd 8330 043c 01ed 053d 8cff cdbc
00000070: 3702 2fbc e6d3 dc3c a0e2 ae3c f0c8 803c
00000080: 59df 0b3d 85d7 b4bc 4b83 233d d70c a63c
00000090: 69a4 f23c d2e1 1dbc f098 9cbc e939 16bd
000000a0: 3f5c 093d e897 aabc 6556 cb3c 7df9 643c
000000b0: 5b2e d3bb 666d 8fbc 3524 d1bc 0092 59bc
000000c0: 4db3 743a 5655 8fbb 4ac4 803c 7111 c53a
000000d0: 7c74 4f3c a724 f7bc 2437 23bb caec e43c
000000e0: 9e62 e93c fad6 d4bc 8195 5f3c 1bef aabc
000000f0: be0f fd3c 1c76 84bc f391 98bc ab30 c8bc
00000100: 6a9d f8bc 49e1 6db9 b927 11bd b699 803c
00000110: 12fd b83c bb64 d6bc 8ac5 eb3c 0576 07bc
00000120: f499 00bb 8ecb 4b3c 9d74 5a3c 7266 fdbc
00000130: 2915 133d b382 183c f709 f6bc 2d8e cbbc
00000140: 1e4c b5bc f6e4 9dba 3ec6 fc3c b92a 0b3d
00000150: 8c1b 773c 0f6e c93c 9aca 703b f2d1 603c
00000160: c8f3 313d 88e5 1d3d 7cf8 12bd d5c6 233c
00000170: 5963 283c d9d5 eb3c 09ef ed3a 3624 9e3c
00000180: 2637 12bd 3167 413d 5960 cb3c e279 c53c
00000190: a110 e9bc 6f43 b2bc b885 9e3c 42f4 943b
000001a0: 5fa4 3abc 53e6 353d 0642 0abd 429b 0abd
000001b0: f477 f7bc 6c45 013d 03bc ccba 32d6 d8bc
000001c0: 4c23 0a3d 5778 fb3c 02a6 4a3c 6fa0 f73c
000001d0: 394d 1a3d a613 993c 9ee2 a4bc 17a8 8dbc
000001e0: 0a5c afbc e95f f13c 3201 b8bc 5c51 1738
000001f0: a015 b8bb 844c 91bc 7a36 08bd c2f8 41bb

3.running_mean f4 [128]
0.0 0.0 0.00017208364 0.007389437 0.0 3.1635022 0.09105593 0.2889697
0.07152568 0.0 0.3059306 0.0 0.0 0.2750849 2.8640046 2.8715947e-05
0.0014064546 2.3321466 0.17665091 0.48151162 0.0 1.1311975 0.0 9.7580996e-05
0.00032317956 1.0224283 1.9828341 0.0 6.119105e-08 0.0 0.18267463 5.3070326
0.0 0.0 0.0 0.0 0.35460097 4.0959673 0.0 0.0
0.22174571 0.8052237 0.19447657 0.65240294 4.122108 0.0 0.65310484 0.0005078415
0.08817563 0.46009636 0.6289787 0.47713587 0.4063891 3.510786 0.0040988275 0.00017261782
0.0 0.00061185745 4.1032424 0.57992226 0.0 2.9903144e-06 0.9600527 0.07562657
0.018470641 9.41608 7.561239 0.9506182 0.5940358 6e-45 0.13996491 0.0
0.0 0.030748555 0.0 5.9526224 0.0005004172 0.0 0.086122304 0.008919195
0.0 2.0661266 4.9909286 0.0 0.62981594 0.0 2.0504766 0.00015267919
0.00025320708 0.0 0.2310535 0.13044973 0.0 1.0372714 0.831263 0.3479503
0.08432372 0.0022331239 0.32690886 2.4096267 0.0 0.0 1.2168802 2.7682223
0.0 0.2381376 1.5269412 0.00016211555 0.0 0.0 5.7026806 0.23195927
0.15467088 0.0 0.0 0.00024032223 0.014811305 3.1400705e-05 3.2027123 0.02998
0.0048446534 4.863253e-05 0.0 4.810985 0.64922327 3.634578 0.0 0.0
00000000: 0000 0000 0000 0000 5a71 3439 1723 f23b
00000010: 0000 0000 d276 4a40 887b ba3d d6f3 933e
00000020: 0e7c 923d 0000 0000 f0a2 9c3e 0000 0000
00000030: 0000 0000 eed7 8c3e da4b 3740 07e3 f037
00000040: c958 b83a e441 1540 fae3 343e b188 f63e
00000050: 0000 0000 14cb 903f 0000 0000 66a4 cc38
00000060: 6d70 a939 eede 823f 82cd fd3f 0000 0000
00000070: 2368 8333 0000 0000 0f0f 3b3e 36d3 a940
00000080: 0000 0000 0000 0000 0000 0000 0000 0000
00000090: 428e b53e 2a12 8340 0000 0000 0000 0000
000000a0: 4f11 633e 2423 4e3f de24 473e e103 273f
000000b0: 4fe8 8340 0000 0000 e131 273f ab20 053a
000000c0: 6d95 b43d c091 eb3e c004 213f 274b f43e
000000d0: 3b12 d03e b8b0 6040 754f 863b be00 3539
000000e0: 0000 0000 0f65 203a c34d 8340 c975 143f
000000f0: 0000 0000 36ad 4836 04c6 753f 1ae2 9a3d
00000100: be4f 973c 44a8 1641 abf5 f140 b75b 733f
00000110: bb12 183f 0400 0000 f652 0f3e 0000 0000
00000120: 0000 0000 65e4 fb3c 0000 0000 e27b be40
00000130: 6e2e 033a 0000 0000 e460 b03d d121 123c
00000140: 0000 0000 6b3b 0440 b0b5 9f40 0000 0000
00000150: 9e3b 213f 0000 0000 023b 0340 8218 2039
00000160: e1c0 8439 0000 0000 4a99 6c3e 9d94 053e
00000170: 0000 0000 4fc5 843f a7cd 543f 8b26 b23e
00000180: eab1 ac3d 9a59 123b 9960 a73e 5337 1a40
00000190: 0000 0000 0000 0000 bbc2 9b3f 8e2a 3140
000001a0: 0000 0000 58da 733e cf72 c33f 90fd 2939
000001b0: 0000 0000 0000 0000 5c7c b640 bb86 6d3e
000001c0: 0b62 1e3e 0000 0000 0000 0000 02ff 7b39
000001d0: 1eab 723c 40b4 0338 3df9 4c40 9e98 f53c
000001e0: e6bf 9e3b c8fa 4b38 0000 0000 97f3 9940
000001f0: 7f33 263f ed9c 6840 0000 0000 0000 0000

3.running_var f4 [128]
6e-45 6e-45 0.00010745097 0.0092249205 6e-45 3.5509887 0.029925283 0.25493506
0.019805748 6e-45 0.14624217 6e-45 6e-45 0.16968146 2.9375205 1.9125804e-05
0.0016368405 1.9296601 0.07317177 0.13396308 6e-45 0.78598773 6e-45 6.7437504e-05
0.0005866485 0.61748815 1.660114 6e-45 8.808614e-09 6e-45 0.10113568 9.658628
6e-45 6e-45 6e-45 6e-45 0.13640743 5.897038 6e-45 6e-45
0.08878463 0.54266214 0.097705424 0.50583726 6.106347 6e-45 0.47277617 0.00012604185
0.062384386 0.34059703 0.19900206 0.21351445 0.15073308 4.3983064 0.008215246 0.00021023974
6e-45 0.0006239554 5.9844375 0.5356023 6e-45 6.090406e-07 0.9053083 0.026016079
0.0050696363 29.466772 19.310537 0.6353874 0.32176378 6e-45 0.024920413 6e-45
6e-45 0.012909169 6e-45 11.986192 0.000503832 6e-45 0.10090831 0.0033815047
6e-45 1.7684457 8.547928 6e-45 0.26525483 6e-45 1.5239415 0.00014022407
5.0076535e-05 6e-45 0.15025994 0.2886843 6e-45 0.7951981 0.3212865 0.1732817
0.031003581 0.0013001323 0.08761039 2.3150084 6e-45 6e-45 0.5940128 2.846163
6e-45 0.35191628 1.306617 4.530794e-05 6e-45 6e-45 10.881786 0.17961523
0.0604535 6e-45 6e-45 0.000107107866 0.04007229 5.4358575e-06 3.5396562 0.006393506
0.006216432 9.702648e-06 6e-45 7.8010263 0.5299716 4.8792 6e-45 6e-45
00000000: 0400 0000 0400 0000 4d57 e138 1f24 173c
00000010: 0400 0000 6643 6340 de25 f53c d986 823e
00000020: aa3f a23c 0400 0000 82c0 153e 0400 0000
00000030: 0400 0000 fac0 2d3e 5600 3c40 5a70 a037
00000040: 418b d63a 1aff f63f 15db 953d 9e2d 093e
00000050: 0400 0000 7e36 493f 0400 0000 3c6d 8d38
00000060: 50c9 193a b413 1e3f 9e7e d43f 0400 0000
00000070: b254 1732 0400 0000 3920 cf3d be89 1a41
00000080: 0400 0000 0400 0000 0400 0000 0400 0000
00000090: 64ae 0b3e 89b4 bc40 0400 0000 0400 0000
000000a0: b7d4 b53d e8eb 0a3f c819 c83d 8d7e 013f
000000b0: 3267 c340 0400 0000 b80f f23e 1a2a 0439
000000c0: c586 7f3d bc62 ae3e 32c7 4b3e 88a3 5a3e
000000d0: c659 1a3e edbe 8c40 3d99 063c cd73 5c39
000000e0: 0400 0000 f090 233a 8380 bf40 3b1d 093f
000000f0: 0400 0000 f47c 2335 49c2 673f ac1f d53c
00000100: 311f a63b f3bb eb41 fb7b 9a41 c0a8 223f
00000110: 39be a43e 0400 0000 e525 cc3c 0400 0000
00000120: 0400 0000 fb80 533c 0400 0000 71c7 3f41
00000130: 9813 043a 0400 0000 04a9 ce3d 3c9c 5d3b
00000140: 0400 0000 6e5c e23f 50c4 0841 0400 0000
00000150: 7bcf 873e 0400 0000 8410 c33f 1d09 1339
00000160: 4509 5238 0400 0000 bedd 193e 6ece 933e
00000170: 0400 0000 1a92 4b3f aa7f a43e c270 313e
00000180: 39fb fd3c 3369 aa3a 136d b33d 1929 1440
00000190: 0400 0000 0400 0000 3911 183f 8927 3640
000001a0: 0400 0000 5f2e b43e 3a3f a73f 0809 3e38
000001b0: 0400 0000 0400 0000 cc1b 2e41 0eed 373e
000001c0: 179e 773d 0400 0000 0400 0000 199f e038
000001d0: d722 243d a965 b636 ba89 6240 9e80 d13b
000001e0: 36b3 cb3b 8ec8 2237 0400 0000 02a2 f940
000001f0: 38ac 073f 6822 9c40 0400 0000 0400 0000

4.weight f4 [128, 128]
0.032072984 -0.019019887 -0.089513615 -0.08806507 0.105284 0.0027918522 -0.09505843 -0.14947343
0.04622004 0.048149236 -0.03379448 -0.013065227 0.045388676 0.115548775 0.033598986 0.062113326
-0.06897398 -0.0139904125 -0.044446178 0.0391909 0.016501212 0.055688236 0.05858313 -0.07172414
0.011616427 0.037929285 -0.05520033 -0.042887453 -0.003697276 -0.01327217 0.12805568 0.018063212
-0.016847683 0.060205095 0.0021317834 0.04204848 0.00862613 -0.061200026 -0.09515656 0.031218281
0.07814166 -0.027230248 0.05393856 -0.068137325 -0.0033906773 -0.039346434 0.0149328355 -0.0010165089
0.01693036 -0.00771526 0.05963806 0.06893268 0.09120272 0.0049095494 -0.11004421 0.08588721
0.0823435 -0.03724796 0.062862575 -0.056672297 -0.029012589 -0.031831026 -0.062756106 -0.09339883
-0.10621987 0.055347063 -0.031601593 0.055750333 0.002160055 -0.070831105 0.0025313536 0.0244219
0.007569056 0.08980915 -0.049009643 -0.020504229 0.07916264 0.063394904 -0.028272802 -0.107983485
0.0061902846 -0.0874812 0.056924652 0.010915223 0.030246882 -0.03312485 0.023314988 0.03625677
0.09601035 0.09638417 -0.103837006 0.08255144 -0.058943667 -0.09770711 -0.0031902667 0.082807764
0.019620413 0.039610025 0.070045695 0.042253222 -0.02806359 0.014686747 -0.048509866 -0.010179844
0.028891535 0.021568447 0.015667243 -0.05601377 -0.079857476 -0.033702154 -0.0189297 -0.0792245
0.09650504 -0.027114881 -0.017448485 -0.007872637 0.04709923 0.009753204 0.017111128 -0.0043920474
-0.101622455 0.04344246 0.024331458 -0.03786773 0.051369015 -0.07616183 -0.047612082 -0.02146288
-0.08048688 0.033327583 0.0070160027 0.047521144 -0.06596476 -0.0037533317 -0.0177405 -0.04745473
-0.12423517 -0.059976023 0.12181483 0.042891476 0.010147563 0.0018993736 -0.01310257 -0.0030947374
-0.006574892 -0.07510272 0.026710268 0.04535345 0.05999436 0.07011645 -0.028724732 -0.03171719
-0.04586951 0.048364017 0.00836148 -0.06703021 -0.003967358 -0.078022674 0.12887172 -0.0051153656
0.038992215 0.022839798 -0.03348146 -0.072941564 -0.07466959 0.04627724 0.01991942 0.0557691
-0.046388194 -0.022241589 -0.00034153697 -0.053730596 0.024951229 -0.027717087 -0.023080869 -0.00072602235
-0.03760967 0.032452382 -0.011277136 -0.043365035 0.07265844 -0.012201787 -0.07308841 -0.0016962879
0.08721844 -0.032176282 0.060562693 -0.036559764 -0.017587487 0.03909341 -0.059507363 -0.13089833
-0.077077836 -0.03229665 -0.040988415 -0.0787087 0.044279955 0.044626746 0.115471825 -0.016184224
-0.04737002 0.0777286 0.027471604 0.006693341 -0.06882412 -0.016801568 -0.006047463 -0.10078704
-0.047620166 0.058304325 0.046684697 0.03451893 0.06293596 0.040239684 0.076149106 -0.0010557446
0.014564598 -0.06254074 0.004250058 -0.057033263 0.06667218 0.0017037328 -0.062249783 0.16017045
-0.087134294 -0.06784468 0.05265156 0.027778292 -0.08037699 0.011565704 0.00908793 -0.0050586606
-0.043893225 0.08188519 -0.007520999 -0.06522839 -0.012902142 -0.07224973 -0.06787421 -0.113443434
0.117915854 -0.044992566 -0.012154564 0.078444906 0.04190708 0.04507111 0.0678746 -0.11323193
0.052051358 0.039756615 0.041098356 0.031247089 -0.053491175 0.070827946 -0.01716117 -0.035570685
00000000: f65e 033d 98cf 9bbc ea52 b7bd 765b b4bd
00000010: 239f d73d 82f7 363b ffad c2bd 900f 19be
00000020: 3a51 3d3d 2238 453d 156c 0abd 890f 56bc
00000030: 7ae9 393d d6a4 ec3d 179f 093d 8b6a 7e3d
00000040: 3b42 8dbd 0b38 65bc 320d 36bd a386 203d
00000050: 8d2d 873c 5919 643d ddf4 6f3d 1be4 92bd
00000060: d452 3e3c bd5b 1b3d be19 62bd c1aa 2fbd
00000070: 004e 72bb 8473 59bc 0721 033e 4df9 933c
00000080: 2704 8abc 9e99 763d 64b5 0b3b 073b 2c3d
00000090: 9d54 0d3c e1ac 7abd 71e1 c2bd 7bbd ff3c
000000a0: bc08 a03d f811 dfbc aeee 5c3d 958b 8bbd
000000b0: 2036 5ebb ba29 21bd daa8 743c 613c 85ba
000000c0: 8ab1 8a3c 4bd0 fcbb 0a47 743d 942c 8d3d
000000d0: 7ec8 ba3d 49e0 a03b dc5e e1bd a2e5 af3d
000000e0: b5a3 a83d 5191 18bd 18be 803d 3621 68bd
000000f0: cfab edbc 4061 02bd 4686 80bd e347 bfbd
00000100: ce89 d9bd 9ab3 623d ac70 01bd 765a 643d
00000110: b68f 0d3b e60f 91bd 11e5 253b 7010 c83c
00000120: d805 f83b dced b73d 56be 48bd 7cf8 a7bc
00000130: 0620 a23d 30d5 813d 5d9c e7bc 7226 ddbd
00000140: dfd7 ca3b 5829 b3bd d329 693d c3d5 323c
00000150: 4fc8 f73c ecad 07bd 13ff be3c fb81 143d
00000160: 13a1 c43d 1065 c53d 7fa8 d4bd bb10 a93d
00000170: ea6e 71bd aa1a c8bd cb13 51bb 1e97 a93d
00000180: fdba a03c 1f3e 223d 1e74 8f3d b711 2d3d
00000190: 9de5 e5bc afa0 703c 48b2 46bd 5cc9 26bc
000001a0: f1ad ec3c 50b0 b03c 9758 803c b26e 65bd
000001b0: 518c a3bd 450b 0abd 7512 9bbc 7440 a2bd
000001c0: 6fa4 c53d 0720 debc 20f0 8ebc 3cfc 00bc
000001d0: 1feb 403d e7cb 1f3c a32c 8c3c 2aeb 8fbb
000001e0: 6f1f d0bd b9f0 313d c452 c73c 311b 1bbd
000001f0: 5168 523d bcfa 9bbd e304 43bd ecd2 afbc
00000200: 4ed6 a4bd 8182 083d 7fe6 e53b 88a5 423d
00000210: 8818 87bd 75fa 75bb 8654 91bc e45f 42bd
00000220: 026f febd 6ba9 75bd 0e7a f93d f9ae 2f3d
00000230: f741 263c 67f4 f83a 29ac 56bc 14d1 4abb
00000240: 3172 d7bb 74cf 99bd 7ecf da3c 8ac4 393d
00000250: a5bc 753d 3799 8f3d 2150 ebbc e2e9 01bd
00000260: abe1 3bbd 5919 463d 97fe 083c 2247 89bd
00000270: 9c00 82bb 5aca 9fbd f3f6 033e cc9e a7bb
00000280: 4db6 1f3d 871a bb3c db23 09bd 6362 95bd
00000290: 5fec 98bd 348d 3d3d 0d2e a33c 246e 643d
000002a0: 8c01 3ebd fe33 b6bc 5110 b3b9 9d14 5cbd
000002b0: 8566 cc3c f20e e3bc 1714 bdbc 8952 3eba
000002c0: 990c 1abd caec 043d bdc3 38bc 899f 31bd
000002d0: f3cd 943d 01ea 47bc 60af 95bd fa55 deba
000002e0: 959f b23d 47cb 03bd 9610 783d b1bf 15bd
000002f0: a213 90bc 6920 203d febd 73bd 360a 06be
00000300: fcda 9dbd 7e49 04bd 78e3 27bd 0732 a1bd
00000310: e65e 353d 89ca 363d 7e7c ec3d c794 84bc
00000320: 1107 42bd 2c30 9f3d 210c e13c d053 db3b
00000330: a9f3 8cbd 71a3 89bc cc29 c6bb 7069 cebd
00000340: 5d0d 43bd 84d0 6e3d 7438 3f3d b963 0d3d
00000350: 92e4 803d 5ed2 243d 10f4 9b3d e960 8aba
00000360: 5aa0 6e3c 5c15 80bd 1244 8b3b b69b 69bd
00000370: 6d8b 883d c94f df3a a1f9 7ebd b903 243e
00000380: 7773 b2bd 27f2 8abd 2aa9 573d 4d8f e33c
00000390: b19c a4bd 147e 3d3c 8be5 143c 1fc3 a5bb
000003a0: 62c9 33bd 6cb3 a73d b672 f6bb 7696 85bd
000003b0: 8163 53bc abf7 93bd a201 8bbd 0855 e8bd
000003c0: de7d f13d 204a 38bd f023 47bc b9a7 a03d
000003d0: c2a6 2b3d 7c9c 383d d701 8b3d 24e6 e7bd
000003e0: ce33 553d d5d7 223d c056 283d e5f9 ff3c
000003f0: 9019 5bbd 3e0e 913d 9595 8cbc 91b2 11bd

4.bias f4 [128]
0.06539886 0.069475025 -0.036509227 -0.04232393 0.087806 0.07518882 0.06003349 -0.009935354
0.085803054 -0.059331063 -0.02981362 0.09581576 -0.0027182426 -0.04858009 -0.035318594 0.04083981
-0.025503688 -0.029516779 0.07887138 -0.05788999 0.087358885 0.009797091 0.090966314 0.0016338752
-0.004375661 0.07068692 0.0046610846 0.06214544 -0.0047029387 0.034858845 -0.041777354 -0.03478279
0.041134223 0.007166992 0.095618255 0.06475598 -0.004210084 0.05519976 -0.026497697 0.052238394
0.072061636 0.08024292 0.0019765433 -0.014281628 0.021455333 0.06581462 0.089640744 0.087001204
0.07597867 -0.06919646 0.082701266 0.037029948 -0.020292576 -0.02907363 -0.034818187 0.109797135
-0.0006718262 0.10385007 -0.05539934 -0.05580387 -0.07857164 0.07938864 -0.07130484 -0.04687956
0.042181183 0.05193706 0.013086833 -0.013889344 0.048716534 -0.043663934 0.06515556 -0.02727852
-0.07575427 0.057048358 0.00962189 -0.0744436 0.009279293 0.005960072 0.008991768 -0.010535318
0.06458154 0.060896877 -0.017326083 0.014634016 0.08708392 0.078671865 0.03387926 0.1409839
-0.055927508 0.009281183 0.06319568 -0.075763606 0.061510663 0.047358472 0.05923093 0.08992558
-0.07107853 -0.049786042 -0.07255047 -0.019740408 0.0049750353 -0.05112901 -0.07509683 -0.05212801
-0.02571504 0.09856027 -0.029419271 0.08617758 0.09665901 0.0546789 0.06176922 -0.06649795
0.03692146 -0.024140755 -0.019389145 -0.046723954 -0.05702115 0.040557932 -0.0011221009 -0.06188519
-0.001521139 0.049818225 0.07791739 0.09306309 0.038862742 0.10883376 0.120070934 -0.024994394
00000000: d6ef 853d ec48 8e3d b38a 15bd db5b 2dbd
00000010: a2d3 b33d 99fc 993d ade5 753d e5c7 22bc
00000020: 83b9 af3d 2105 73bd b13b f4bc 0e3b c43d
00000030: 8b24 32bb ebfb 46bd 3baa 10bd a547 273d
00000040: 1ced d0bc 2ccd f1bc 5187 a13d 0e1e 6dbd
00000050: 37e9 b23d fa83 203c 8c4c ba3d c127 d63a
00000060: b461 8fbb 4ec4 903d 03bc 983b 388c 7e3d
00000070: 1c1b 9abb 26c8 0e3d bb1e 2bbd 6678 0ebd
00000080: 5c7c 283d 16d9 ea3b 81d3 c33d c99e 843d
00000090: bff4 89bb 2519 623d b311 d9bc edf7 553d
000000a0: 0d95 933d 6656 a43d e588 013b 7dfd 69bc
000000b0: 18c3 af3c d1c9 863d 9195 b73d b02d b23d
000000c0: b49a 9b3d e0b6 8dbd 485f a93d b7ac 173d
000000d0: 9e3c a6bc d22b eebc 849d 0ebd 52dd e03d
000000e0: 7e1d 30ba 58af d43d 6bea 62bd 9992 64bd
000000f0: 2bea a0bd 8396 a23d 4608 92bd c804 40bd
00000100: 2dc6 2c3d f4bb 543d 286a 563c 2290 63bc
00000110: fd8a 473d f4d8 32bd 4770 853d 3477 dfbc
00000120: 0e25 9bbd 8aab 693d 22a5 1d3c e375 98bd
00000130: 2d08 183c b54c c33b 3552 133c 549c 2cbc
00000140: 5443 843d 016f 793d 6eef 8dbc 83c3 6f3c
00000150: 0e59 b23d b71e a13d fbc4 0a3d 155e 103e
00000160: 3e14 65bd 1a10 183c bd6c 813d f329 9bbd
00000170: 9bf2 7b3d f5fa 413d 229c 723d e72a b83d
00000180: 9f91 91bd 73ec 4bbd 5795 94bd a3b6 a1bc
00000190: 9f05 a33b a76c 51bd 5ecc 99bd 2e84 55bd
000001a0: 59a8 d2bc f8d9 c93d af00 f1bc df7d b03d
000001b0: 29f5 c53d fbf6 5f3d b901 7d3d 1430 88bd
000001c0: f53a 173d d5c2 c5bc fcd5 9ebc 9e61 3fbd
000001d0: 028f 69bd 1320 263d 7513 93ba 537b 7dbd
000001e0: f560 c7ba 320e 4c3d 2793 9f3d dd97 be3d
000001f0: 8a2e 1f3d 3ce4 de3d c0e7 f53d 0bc1 ccbc

7.weight f4 [2, 128]
-0.15504873 -0.23251504 0.073007494 -0.012986869 -0.1967539 0.08693943 -0.03352241 0.018217368
0.11536788 0.023853144 0.0985034 -0.13069986 -0.10553116 -0.02514599 0.0019944345 0.11145543
0.062995896 -0.005998216 0.13120016 -0.0321042 -0.08906746 -0.06761374 -0.00048467584 -0.095255286
-0.037115637 -0.15922698 -0.0054756575 -0.20710437 0.072203785 -0.25518972 -0.030490672 -0.16098747
0.17111622 -0.23341383 -0.17058352 -0.14054033 -0.12476007 -0.08806675 0.107670754 -0.18938923
-0.020518783 -0.005824449 -0.030077402 0.008638573 -0.11690319 0.14069302 -0.1284349 -0.036403466
-0.07430178 -0.11165234 0.07942303 -0.09311146 -0.122959845 0.026881458 -0.10908225 -0.1706537
-0.13887154 -0.058872648 0.10212784 0.09202723 -0.037191357 0.15293545 -0.02987238 -0.06382808
-0.08775508 -0.059113752 -0.09300902 -0.08424336 -0.08073054 -0.10981671 0.114934295 0.142926
-0.01616747 -0.105484426 0.15840687 0.0515047 -0.02986643 0.032739528 0.18629064 0.07381102
0.13271415 0.16500883 0.190237 0.09516611 -0.1319091 -0.1744155 -0.16413419 -0.2225116
-0.053083 -0.021641646 0.14009356 -0.09108278 -0.10911193 -0.027101127 -0.04364815 0.008003447
0.0347034 0.05874113 0.06171644 -0.041176654 0.005326727 -0.12340084 -0.094835274 -0.048971508
-0.05510724 0.23202325 0.14036755 0.09730673 -0.20301262 -0.18837291 -0.08991337 0.095975116
-0.08364017 0.05957309 -0.035772007 0.015932042 0.06199404 0.06932761 -0.038112476 -0.009176206
0.015150972 -0.074287646 -0.16829991 -0.1341373 -0.08866176 0.05761933 -0.18302073 0.023846803
0.21823938 0.16369535 -0.0022599066 -0.08688362 0.103803195 0.014637686 0.17732793 -0.07156438
-0.18110034 -0.10338789 -0.05891657 0.039172295 0.14780734 0.09369448 0.15151237 -0.06625311
0.016773233 -0.12182037 -0.08282105 0.06416049 0.1191375 0.058436453 0.130086 0.018452201
-0.11560367 0.14782788 -0.09555564 0.22056405 -0.0003792156 0.24906667 0.07185726 0.08171752
-0.059361897 0.17291217 0.05414292 0.11042644 -0.00039911116 0.108307116 -0.1649379 0.17440759
-0.06800837 -0.06825475 0.017876746 0.032180686 0.029489154 -0.1267968 0.161493 0.068798326
-0.013523101 0.0031015726 -0.079244874 0.06389769 0.13471794 -0.06502129 0.09484324 0.13701601
0.13875832 0.14893839 -0.03345044 0.046206784 -0.025490345 -0.15614472 -0.076000564 0.0316079
0.06256125 0.13601333 0.076393895 0.19721767 -0.039159548 -0.011201053 -0.03167132 0.020616546
0.022356857 0.13822469 -0.10223697 0.05918189 0.018518416 -0.039540842 -0.18599516 -0.094897866
-0.01557205 -0.18126775 -0.06788137 -0.13785204 0.12610422 0.17247324 0.099669084 0.18998104
0.10343477 -0.08143042 -0.17087485 0.038106415 0.03346185 0.14005175 -0.03211642 -0.04102788
-0.034257088 -0.030737761 -0.018462436 -0.09043791 0.070219 0.06336121 -0.05282586 0.16815634
0.06369151 -0.22949901 -0.012107903 -0.12695819 0.19650601 0.05494905 5.463197e-05 0.014579607
0.0136001175 -0.05084978 0.032707825 -0.09427563 -0.15470387 -0.11687011 0.043892205 -0.10862996
0.084325895 -0.011771778 0.117039576 0.036209755 0.19943641 -0.08690276 0.18550713 0.08541614
00000000: 18c5 1ebe 6c18 6ebe f484 953d e0c6 54bc
00000010: db79 49be 4d0d b23d cb4e 09bd 973c 953c
00000020: ff45 ec3d ab67 c33c 27bc c93d 2fd6 05be
00000030: b920 d8bd f7fe cdbc 0fb5 023b bf42 e43d
00000040: fe03 813d af8c c4bb 5659 063e b27f 03bd
00000050: 0069 b6bd 1379 8abd 171c feb9 3415 c3bd
00000060: 9106 18bd 660c 23be 256d b3bb 2b13 54be
00000070: 94df 933d 3aa8 82be 93c7 f9bc e6d9 24be
00000080: 1739 2f3e 0904 6fbe 72ad 2ebe cee9 0fbe
00000090: 3582 ffbd 575c b4bd 7c82 dc3d 40ef 41be
000000a0: 0217 a8bc 05db bebb e264 f6bc cd88 0d3c
000000b0: f16a efbd d511 103e 7084 03be cd1b 15bd
000000c0: 882b 98bd fba9 e4bd 8ba8 a23d 39b1 bebd
000000d0: 5fd2 fbbd 8136 dc3c 8466 dfbd d8bf 2ebe
000000e0: 5734 0ebe 7224 71bd 6728 d13d c678 bc3d
000000f0: f755 18bd 1c9b 1c3e ecb6 f4bc 4cb8 82bd
00000100: efb8 b3bd 4321 72bd 837b bebd c887 acbd
00000110: 0e56 a5bd 95e7 e0bd ac62 eb3d 315b 123e
00000120: a471 84bc 3808 d8bd 6935 223e 98f6 523d
00000130: 72aa f4bc e219 063d f9c2 3e3e 3b2a 973d
00000140: 38e6 073e 13f8 283e 7dcd 423e 73e6 c23d
00000150: 2e13 07be fa99 32be cb12 28be 15da 63be
00000160: 8f6d 59bd d249 b1bc b074 0f3e 9c89 babd
00000170: 1376 dfbd 2f03 debc 67c8 32bd e420 033c
00000180: 2725 0e3d 8a9a 703d 61ca 7c3d daa8 28bd
00000190: d38b ae3b 94b9 fcbd ff38 c2bd 5996 48bd
000001a0: 21b8 61bd 8197 6d3e 83bc 0f3e c048 c73d
000001b0: 8ae2 4fbe d4e4 40be 8024 b8bd 9a8e c43d
000001c0: 8a4b abbd ea02 743d ab85 12bd ea83 823c
000001d0: 76ed 7d3d a2fb 8d3d d41b 1cbd cc57 16bc
000001e0: c83b 783c 1f24 98bd d056 2cbe 4a5b 09be
000001f0: 4c94 b5bd 3f02 6c3d c969 3bbe 5f5a c33c
00000200: 257a 5f3e c19f 273e f11a 14bb 0af0 b1bd
00000210: c596 d43d e8d2 6f3c 7495 353e 5890 92bd
00000220: 5e72 39be 08bd d3bd 8052 71bd 2173 203d
00000230: cf5a 173e e4e2 bf3d 0f26 1b3e b6af 87bd
00000240: 0568 893c f57c f9bd 159e a9bd 9366 833d
00000250: 5dfe f33d 105b 6f3d 4435 053e 1229 973c
00000260: 9ec1 ecbd 3160 173e adb2 c3bd 8bdb 613e
00000270: 75d1 c6b9 550b 7f3e e629 933d 845b a73d
00000280: 7625 73bd e30f 313e f7c4 5d3d 4227 e23d
00000290: cb3f d1b9 1fd0 dd3d 7be5 28be e797 323e
000002a0: f947 8bbd 25c9 8bbd 4172 923c e5cf 033d
000002b0: 3d93 f13c 05d7 01be 6c5e 253e 23e6 8c3d
000002c0: ff8f 5dbc c143 4b3b 234b a2bd cbdc 823d
000002d0: 80f3 093e e229 85bd 2c3d c23d ed4d 0c3e
000002e0: a916 0e3e 4e83 183e 5403 09bd 5343 3d3d
000002f0: 21d1 d0bc 67e4 1fbe 2fa6 9bbd 4977 013d
00000300: 1d20 803d 1447 0b3e 6774 9c3d 6ef3 493e
00000310: c365 20bd 9f84 37bc c9b9 01bd 08e4 a83c
00000320: ba25 b73c c68a 0d3e 9e61 d1bd b668 723d
00000330: efb3 973c 94f5 21bd 8475 3ebe d059 c2bd
00000340: e921 7fbc 419e 39be 6305 8bbd 1629 0dbe
00000350: 7721 013e d39c 303e 4e1f cc3d 648a 423e
00000360: 9cd5 d33d fec4 a6bd d1f9 2ebe 7915 1c3d
00000370: 4b0f 093d ba69 0f3e 828c 03bd da0c 28bd
00000380: 2951 0cbd c2cd fbbc 893e 97bc 8337 b9bd
00000390: fbce 8f3d 86c3 813d ee5f 58bd 2d31 2c3e
000003a0: b270 823d ca01 6bbe 3a60 46bc 5401 02be
000003b0: df38 493e 4112 613d a224 6538 4edf 6e3c
000003c0: 07d3 5e3c dc47 50bd a4f8 053d 9513 c1bd
000003d0: b16a 1ebe 9959 efbd 50c8 333d 6279 debd
000003e0: 0eb3 ac3d 6ade 40bc 72b2 ef3d ae50 143d
000003f0: 0f39 4c3e 13fa b1bd 95f5 3d3e a8ee ae3d

7.bias f4 [2]
-0.04174487 0.12519175
00000000: abfc 2abd 4432 003e
